…
[2019-08-26 17:48:49,375] - [train.py line:120] : {'architecture': 'densebc_100_12', 'data_path': './data', 'ckpt_path': './', 'ckpt_name': 'densebc_100_12', 'num_classes': 100, 'dataset': 'cifar100', 'use_gpu': True, 'input_size': 32, 'epochs': 250, 'batch_size': 128, 'test_batch': 200, 'eval_freq': 2, 'workers': 4, 'optimize': {'momentum': 0.9, 'weight_decay': 0.0005, 'nesterov': True}, 'mixup': False, 'mixup_alpha': 0.4, 'augmentation': {'normalize': True, 'random_crop': True, 'random_horizontal_filp': True, 'cutout': False, 'holes': 1, 'length': 8}, 'lr_scheduler': {'type': 'STEP', 'base_lr': 0.1, 'lr_epochs': [100, 150, 200], 'lr_mults': 0.1, 'min_lr': 0.0, 'lower_bound': -6.0, 'upper_bound': 3.0}}
[2019-08-26 17:48:49,401] - [train.py line:123] : DenseNet(
  (conv1): Conv2d(3, 24, kernel_size=(3, 3), stride=(1, 1), padding=(1, 1), bias=False)
  (block1): Sequential(
    (0): BottleNeck(
      (conv1): Sequential(
        (0): BatchNorm2d(24, eps=1e-05, momentum=0.1, affine=True, track_running_stats=True)
        (1): ReLU(inplace=True)
        (2): Conv2d(24, 48, kernel_size=(1, 1), stride=(1, 1), bias=False)
      )
      (conv2): Sequential(
        (0): BatchNorm2d(48, eps=1e-05, momentum=0.1, affine=True, track_running_stats=True)
        (1): ReLU(inplace=True)
        (2): Conv2d(48, 12, kernel_size=(1, 1), stride=(1, 1), bias=False)
      )
    )
    (1): BottleNeck(
      (conv1): Sequential(
        (0): BatchNorm2d(24, eps=1e-05, momentum=0.1, affine=True, track_running_stats=True)
        (1): ReLU(inplace=True)
        (2): Conv2d(24, 48, kernel_size=(1, 1), stride=(1, 1), bias=False)
      )
      (conv2): Sequential(
        (0): BatchNorm2d(48, eps=1e-05, momentum=0.1, affine=True, track_running_stats=True)
        (1): ReLU(inplace=True)
        (2): Conv2d(48, 12, kernel_size=(1, 1), stride=(1, 1), bias=False)
      )
    )
    (2): BottleNeck(
      (conv1): Sequential(
        (0): BatchNorm2d(24, eps=1e-05, momentum=0.1, affine=True, track_running_stats=True)
        (1): ReLU(inplace=True)
        (2): Conv2d(24, 48, kernel_size=(1, 1), stride=(1, 1), bias=False)
      )
      (conv2): Sequential(
        (0): BatchNorm2d(48, eps=1e-05, momentum=0.1, affine=True, track_running_stats=True)
        (1): ReLU(inplace=True)
        (2): Conv2d(48, 12, kernel_size=(1, 1), stride=(1, 1), bias=False)
      )
    )
    (3): BottleNeck(
      (conv1): Sequential(
        (0): BatchNorm2d(24, eps=1e-05, momentum=0.1, affine=True, track_running_stats=True)
        (1): ReLU(inplace=True)
        (2): Conv2d(24, 48, kernel_size=(1, 1), stride=(1, 1), bias=False)
      )
      (conv2): Sequential(
        (0): BatchNorm2d(48, eps=1e-05, momentum=0.1, affine=True, track_running_stats=True)
        (1): ReLU(inplace=True)
        (2): Conv2d(48, 12, kernel_size=(1, 1), stride=(1, 1), bias=False)
      )
    )
    (4): BottleNeck(
      (conv1): Sequential(
        (0): BatchNorm2d(24, eps=1e-05, momentum=0.1, affine=True, track_running_stats=True)
        (1): ReLU(inplace=True)
        (2): Conv2d(24, 48, kernel_size=(1, 1), stride=(1, 1), bias=False)
      )
      (conv2): Sequential(
        (0): BatchNorm2d(48, eps=1e-05, momentum=0.1, affine=True, track_running_stats=True)
        (1): ReLU(inplace=True)
        (2): Conv2d(48, 12, kernel_size=(1, 1), stride=(1, 1), bias=False)
      )
    )
    (5): BottleNeck(
      (conv1): Sequential(
        (0): BatchNorm2d(24, eps=1e-05, momentum=0.1, affine=True, track_running_stats=True)
        (1): ReLU(inplace=True)
        (2): Conv2d(24, 48, kernel_size=(1, 1), stride=(1, 1), bias=False)
      )
      (conv2): Sequential(
        (0): BatchNorm2d(48, eps=1e-05, momentum=0.1, affine=True, track_running_stats=True)
        (1): ReLU(inplace=True)
        (2): Conv2d(48, 12, kernel_size=(1, 1), stride=(1, 1), bias=False)
      )
    )
    (6): BottleNeck(
      (conv1): Sequential(
        (0): BatchNorm2d(24, eps=1e-05, momentum=0.1, affine=True, track_running_stats=True)
        (1): ReLU(inplace=True)
        (2): Conv2d(24, 48, kernel_size=(1, 1), stride=(1, 1), bias=False)
      )
      (conv2): Sequential(
        (0): BatchNorm2d(48, eps=1e-05, momentum=0.1, affine=True, track_running_stats=True)
        (1): ReLU(inplace=True)
        (2): Conv2d(48, 12, kernel_size=(1, 1), stride=(1, 1), bias=False)
      )
    )
    (7): BottleNeck(
      (conv1): Sequential(
        (0): BatchNorm2d(24, eps=1e-05, momentum=0.1, affine=True, track_running_stats=True)
        (1): ReLU(inplace=True)
        (2): Conv2d(24, 48, kernel_size=(1, 1), stride=(1, 1), bias=False)
      )
      (conv2): Sequential(
        (0): BatchNorm2d(48, eps=1e-05, momentum=0.1, affine=True, track_running_stats=True)
        (1): ReLU(inplace=True)
        (2): Conv2d(48, 12, kernel_size=(1, 1), stride=(1, 1), bias=False)
      )
    )
    (8): BottleNeck(
      (conv1): Sequential(
        (0): BatchNorm2d(24, eps=1e-05, momentum=0.1, affine=True, track_running_stats=True)
        (1): ReLU(inplace=True)
        (2): Conv2d(24, 48, kernel_size=(1, 1), stride=(1, 1), bias=False)
      )
      (conv2): Sequential(
        (0): BatchNorm2d(48, eps=1e-05, momentum=0.1, affine=True, track_running_stats=True)
        (1): ReLU(inplace=True)
        (2): Conv2d(48, 12, kernel_size=(1, 1), stride=(1, 1), bias=False)
      )
    )
    (9): BottleNeck(
      (conv1): Sequential(
        (0): BatchNorm2d(24, eps=1e-05, momentum=0.1, affine=True, track_running_stats=True)
        (1): ReLU(inplace=True)
        (2): Conv2d(24, 48, kernel_size=(1, 1), stride=(1, 1), bias=False)
      )
      (conv2): Sequential(
        (0): BatchNorm2d(48, eps=1e-05, momentum=0.1, affine=True, track_running_stats=True)
        (1): ReLU(inplace=True)
        (2): Conv2d(48, 12, kernel_size=(1, 1), stride=(1, 1), bias=False)
      )
    )
    (10): BottleNeck(
      (conv1): Sequential(
        (0): BatchNorm2d(24, eps=1e-05, momentum=0.1, affine=True, track_running_stats=True)
        (1): ReLU(inplace=True)
        (2): Conv2d(24, 48, kernel_size=(1, 1), stride=(1, 1), bias=False)
      )
      (conv2): Sequential(
        (0): BatchNorm2d(48, eps=1e-05, momentum=0.1, affine=True, track_running_stats=True)
        (1): ReLU(inplace=True)
        (2): Conv2d(48, 12, kernel_size=(1, 1), stride=(1, 1), bias=False)
      )
    )
    (11): BottleNeck(
      (conv1): Sequential(
        (0): BatchNorm2d(24, eps=1e-05, momentum=0.1, affine=True, track_running_stats=True)
        (1): ReLU(inplace=True)
        (2): Conv2d(24, 48, kernel_size=(1, 1), stride=(1, 1), bias=False)
      )
      (conv2): Sequential(
        (0): BatchNorm2d(48, eps=1e-05, momentum=0.1, affine=True, track_running_stats=True)
        (1): ReLU(inplace=True)
        (2): Conv2d(48, 12, kernel_size=(1, 1), stride=(1, 1), bias=False)
      )
    )
    (12): BottleNeck(
      (conv1): Sequential(
        (0): BatchNorm2d(24, eps=1e-05, momentum=0.1, affine=True, track_running_stats=True)
        (1): ReLU(inplace=True)
        (2): Conv2d(24, 48, kernel_size=(1, 1), stride=(1, 1), bias=False)
      )
      (conv2): Sequential(
        (0): BatchNorm2d(48, eps=1e-05, momentum=0.1, affine=True, track_running_stats=True)
        (1): ReLU(inplace=True)
        (2): Conv2d(48, 12, kernel_size=(1, 1), stride=(1, 1), bias=False)
      )
    )
    (13): BottleNeck(
      (conv1): Sequential(
        (0): BatchNorm2d(24, eps=1e-05, momentum=0.1, affine=True, track_running_stats=True)
        (1): ReLU(inplace=True)
        (2): Conv2d(24, 48, kernel_size=(1, 1), stride=(1, 1), bias=False)
      )
      (conv2): Sequential(
        (0): BatchNorm2d(48, eps=1e-05, momentum=0.1, affine=True, track_running_stats=True)
        (1): ReLU(inplace=True)
        (2): Conv2d(48, 12, kernel_size=(1, 1), stride=(1, 1), bias=False)
      )
    )
    (14): BottleNeck(
      (conv1): Sequential(
        (0): BatchNorm2d(24, eps=1e-05, momentum=0.1, affine=True, track_running_stats=True)
        (1): ReLU(inplace=True)
        (2): Conv2d(24, 48, kernel_size=(1, 1), stride=(1, 1), bias=False)
      )
      (conv2): Sequential(
        (0): BatchNorm2d(48, eps=1e-05, momentum=0.1, affine=True, track_running_stats=True)
        (1): ReLU(inplace=True)
        (2): Conv2d(48, 12, kernel_size=(1, 1), stride=(1, 1), bias=False)
      )
    )
    (15): BottleNeck(
      (conv1): Sequential(
        (0): BatchNorm2d(24, eps=1e-05, momentum=0.1, affine=True, track_running_stats=True)
        (1): ReLU(inplace=True)
        (2): Conv2d(24, 48, kernel_size=(1, 1), stride=(1, 1), bias=False)
      )
      (conv2): Sequential(
        (0): BatchNorm2d(48, eps=1e-05, momentum=0.1, affine=True, track_running_stats=True)
        (1): ReLU(inplace=True)
        (2): Conv2d(48, 12, kernel_size=(1, 1), stride=(1, 1), bias=False)
      )
    )
  )
  (transition1): Sequential(
    (0): BatchNorm2d(216, eps=1e-05, momentum=0.1, affine=True, track_running_stats=True)
    (1): ReLU(inplace=True)
    (2): Conv2d(216, 108, kernel_size=(1, 1), stride=(1, 1), bias=False)
    (3): AvgPool2d(kernel_size=2, stride=2, padding=0)
  )
  (block2): Sequential(
    (0): BottleNeck(
      (conv1): Sequential(
        (0): BatchNorm2d(108, eps=1e-05, momentum=0.1, affine=True, track_running_stats=True)
        (1): ReLU(inplace=True)
        (2): Conv2d(108, 48, kernel_size=(1, 1), stride=(1, 1), bias=False)
      )
      (conv2): Sequential(
        (0): BatchNorm2d(48, eps=1e-05, momentum=0.1, affine=True, track_running_stats=True)
        (1): ReLU(inplace=True)
        (2): Conv2d(48, 12, kernel_size=(1, 1), stride=(1, 1), bias=False)
      )
    )
    (1): BottleNeck(
      (conv1): Sequential(
        (0): BatchNorm2d(108, eps=1e-05, momentum=0.1, affine=True, track_running_stats=True)
        (1): ReLU(inplace=True)
        (2): Conv2d(108, 48, kernel_size=(1, 1), stride=(1, 1), bias=False)
      )
      (conv2): Sequential(
        (0): BatchNorm2d(48, eps=1e-05, momentum=0.1, affine=True, track_running_stats=True)
        (1): ReLU(inplace=True)
        (2): Conv2d(48, 12, kernel_size=(1, 1), stride=(1, 1), bias=False)
      )
    )
    (2): BottleNeck(
      (conv1): Sequential(
        (0): BatchNorm2d(108, eps=1e-05, momentum=0.1, affine=True, track_running_stats=True)
        (1): ReLU(inplace=True)
        (2): Conv2d(108, 48, kernel_size=(1, 1), stride=(1, 1), bias=False)
      )
      (conv2): Sequential(
        (0): BatchNorm2d(48, eps=1e-05, momentum=0.1, affine=True, track_running_stats=True)
        (1): ReLU(inplace=True)
        (2): Conv2d(48, 12, kernel_size=(1, 1), stride=(1, 1), bias=False)
      )
    )
    (3): BottleNeck(
      (conv1): Sequential(
        (0): BatchNorm2d(108, eps=1e-05, momentum=0.1, affine=True, track_running_stats=True)
        (1): ReLU(inplace=True)
        (2): Conv2d(108, 48, kernel_size=(1, 1), stride=(1, 1), bias=False)
      )
      (conv2): Sequential(
        (0): BatchNorm2d(48, eps=1e-05, momentum=0.1, affine=True, track_running_stats=True)
        (1): ReLU(inplace=True)
        (2): Conv2d(48, 12, kernel_size=(1, 1), stride=(1, 1), bias=False)
      )
    )
    (4): BottleNeck(
      (conv1): Sequential(
        (0): BatchNorm2d(108, eps=1e-05, momentum=0.1, affine=True, track_running_stats=True)
        (1): ReLU(inplace=True)
        (2): Conv2d(108, 48, kernel_size=(1, 1), stride=(1, 1), bias=False)
      )
      (conv2): Sequential(
        (0): BatchNorm2d(48, eps=1e-05, momentum=0.1, affine=True, track_running_stats=True)
        (1): ReLU(inplace=True)
        (2): Conv2d(48, 12, kernel_size=(1, 1), stride=(1, 1), bias=False)
      )
    )
    (5): BottleNeck(
      (conv1): Sequential(
        (0): BatchNorm2d(108, eps=1e-05, momentum=0.1, affine=True, track_running_stats=True)
        (1): ReLU(inplace=True)
        (2): Conv2d(108, 48, kernel_size=(1, 1), stride=(1, 1), bias=False)
      )
      (conv2): Sequential(
        (0): BatchNorm2d(48, eps=1e-05, momentum=0.1, affine=True, track_running_stats=True)
        (1): ReLU(inplace=True)
        (2): Conv2d(48, 12, kernel_size=(1, 1), stride=(1, 1), bias=False)
      )
    )
    (6): BottleNeck(
      (conv1): Sequential(
        (0): BatchNorm2d(108, eps=1e-05, momentum=0.1, affine=True, track_running_stats=True)
        (1): ReLU(inplace=True)
        (2): Conv2d(108, 48, kernel_size=(1, 1), stride=(1, 1), bias=False)
      )
      (conv2): Sequential(
        (0): BatchNorm2d(48, eps=1e-05, momentum=0.1, affine=True, track_running_stats=True)
        (1): ReLU(inplace=True)
        (2): Conv2d(48, 12, kernel_size=(1, 1), stride=(1, 1), bias=False)
      )
    )
    (7): BottleNeck(
      (conv1): Sequential(
        (0): BatchNorm2d(108, eps=1e-05, momentum=0.1, affine=True, track_running_stats=True)
        (1): ReLU(inplace=True)
        (2): Conv2d(108, 48, kernel_size=(1, 1), stride=(1, 1), bias=False)
      )
      (conv2): Sequential(
        (0): BatchNorm2d(48, eps=1e-05, momentum=0.1, affine=True, track_running_stats=True)
        (1): ReLU(inplace=True)
        (2): Conv2d(48, 12, kernel_size=(1, 1), stride=(1, 1), bias=False)
      )
    )
    (8): BottleNeck(
      (conv1): Sequential(
        (0): BatchNorm2d(108, eps=1e-05, momentum=0.1, affine=True, track_running_stats=True)
        (1): ReLU(inplace=True)
        (2): Conv2d(108, 48, kernel_size=(1, 1), stride=(1, 1), bias=False)
      )
      (conv2): Sequential(
        (0): BatchNorm2d(48, eps=1e-05, momentum=0.1, affine=True, track_running_stats=True)
        (1): ReLU(inplace=True)
        (2): Conv2d(48, 12, kernel_size=(1, 1), stride=(1, 1), bias=False)
      )
    )
    (9): BottleNeck(
      (conv1): Sequential(
        (0): BatchNorm2d(108, eps=1e-05, momentum=0.1, affine=True, track_running_stats=True)
        (1): ReLU(inplace=True)
        (2): Conv2d(108, 48, kernel_size=(1, 1), stride=(1, 1), bias=False)
      )
      (conv2): Sequential(
        (0): BatchNorm2d(48, eps=1e-05, momentum=0.1, affine=True, track_running_stats=True)
        (1): ReLU(inplace=True)
        (2): Conv2d(48, 12, kernel_size=(1, 1), stride=(1, 1), bias=False)
      )
    )
    (10): BottleNeck(
      (conv1): Sequential(
        (0): BatchNorm2d(108, eps=1e-05, momentum=0.1, affine=True, track_running_stats=True)
        (1): ReLU(inplace=True)
        (2): Conv2d(108, 48, kernel_size=(1, 1), stride=(1, 1), bias=False)
      )
      (conv2): Sequential(
        (0): BatchNorm2d(48, eps=1e-05, momentum=0.1, affine=True, track_running_stats=True)
        (1): ReLU(inplace=True)
        (2): Conv2d(48, 12, kernel_size=(1, 1), stride=(1, 1), bias=False)
      )
    )
    (11): BottleNeck(
      (conv1): Sequential(
        (0): BatchNorm2d(108, eps=1e-05, momentum=0.1, affine=True, track_running_stats=True)
        (1): ReLU(inplace=True)
        (2): Conv2d(108, 48, kernel_size=(1, 1), stride=(1, 1), bias=False)
      )
      (conv2): Sequential(
        (0): BatchNorm2d(48, eps=1e-05, momentum=0.1, affine=True, track_running_stats=True)
        (1): ReLU(inplace=True)
        (2): Conv2d(48, 12, kernel_size=(1, 1), stride=(1, 1), bias=False)
      )
    )
    (12): BottleNeck(
      (conv1): Sequential(
        (0): BatchNorm2d(108, eps=1e-05, momentum=0.1, affine=True, track_running_stats=True)
        (1): ReLU(inplace=True)
        (2): Conv2d(108, 48, kernel_size=(1, 1), stride=(1, 1), bias=False)
      )
      (conv2): Sequential(
        (0): BatchNorm2d(48, eps=1e-05, momentum=0.1, affine=True, track_running_stats=True)
        (1): ReLU(inplace=True)
        (2): Conv2d(48, 12, kernel_size=(1, 1), stride=(1, 1), bias=False)
      )
    )
    (13): BottleNeck(
      (conv1): Sequential(
        (0): BatchNorm2d(108, eps=1e-05, momentum=0.1, affine=True, track_running_stats=True)
        (1): ReLU(inplace=True)
        (2): Conv2d(108, 48, kernel_size=(1, 1), stride=(1, 1), bias=False)
      )
      (conv2): Sequential(
        (0): BatchNorm2d(48, eps=1e-05, momentum=0.1, affine=True, track_running_stats=True)
        (1): ReLU(inplace=True)
        (2): Conv2d(48, 12, kernel_size=(1, 1), stride=(1, 1), bias=False)
      )
    )
    (14): BottleNeck(
      (conv1): Sequential(
        (0): BatchNorm2d(108, eps=1e-05, momentum=0.1, affine=True, track_running_stats=True)
        (1): ReLU(inplace=True)
        (2): Conv2d(108, 48, kernel_size=(1, 1), stride=(1, 1), bias=False)
      )
      (conv2): Sequential(
        (0): BatchNorm2d(48, eps=1e-05, momentum=0.1, affine=True, track_running_stats=True)
        (1): ReLU(inplace=True)
        (2): Conv2d(48, 12, kernel_size=(1, 1), stride=(1, 1), bias=False)
      )
    )
    (15): BottleNeck(
      (conv1): Sequential(
        (0): BatchNorm2d(108, eps=1e-05, momentum=0.1, affine=True, track_running_stats=True)
        (1): ReLU(inplace=True)
        (2): Conv2d(108, 48, kernel_size=(1, 1), stride=(1, 1), bias=False)
      )
      (conv2): Sequential(
        (0): BatchNorm2d(48, eps=1e-05, momentum=0.1, affine=True, track_running_stats=True)
        (1): ReLU(inplace=True)
        (2): Conv2d(48, 12, kernel_size=(1, 1), stride=(1, 1), bias=False)
      )
    )
  )
  (transition2): Sequential(
    (0): BatchNorm2d(300, eps=1e-05, momentum=0.1, affine=True, track_running_stats=True)
    (1): ReLU(inplace=True)
    (2): Conv2d(300, 150, kernel_size=(1, 1), stride=(1, 1), bias=False)
    (3): AvgPool2d(kernel_size=2, stride=2, padding=0)
  )
  (block3): Sequential(
    (0): BottleNeck(
      (conv1): Sequential(
        (0): BatchNorm2d(150, eps=1e-05, momentum=0.1, affine=True, track_running_stats=True)
        (1): ReLU(inplace=True)
        (2): Conv2d(150, 48, kernel_size=(1, 1), stride=(1, 1), bias=False)
      )
      (conv2): Sequential(
        (0): BatchNorm2d(48, eps=1e-05, momentum=0.1, affine=True, track_running_stats=True)
        (1): ReLU(inplace=True)
        (2): Conv2d(48, 12, kernel_size=(1, 1), stride=(1, 1), bias=False)
      )
    )
    (1): BottleNeck(
      (conv1): Sequential(
        (0): BatchNorm2d(150, eps=1e-05, momentum=0.1, affine=True, track_running_stats=True)
        (1): ReLU(inplace=True)
        (2): Conv2d(150, 48, kernel_size=(1, 1), stride=(1, 1), bias=False)
      )
      (conv2): Sequential(
        (0): BatchNorm2d(48, eps=1e-05, momentum=0.1, affine=True, track_running_stats=True)
        (1): ReLU(inplace=True)
        (2): Conv2d(48, 12, kernel_size=(1, 1), stride=(1, 1), bias=False)
      )
    )
    (2): BottleNeck(
      (conv1): Sequential(
        (0): BatchNorm2d(150, eps=1e-05, momentum=0.1, affine=True, track_running_stats=True)
        (1): ReLU(inplace=True)
        (2): Conv2d(150, 48, kernel_size=(1, 1), stride=(1, 1), bias=False)
      )
      (conv2): Sequential(
        (0): BatchNorm2d(48, eps=1e-05, momentum=0.1, affine=True, track_running_stats=True)
        (1): ReLU(inplace=True)
        (2): Conv2d(48, 12, kernel_size=(1, 1), stride=(1, 1), bias=False)
      )
    )
    (3): BottleNeck(
      (conv1): Sequential(
        (0): BatchNorm2d(150, eps=1e-05, momentum=0.1, affine=True, track_running_stats=True)
        (1): ReLU(inplace=True)
        (2): Conv2d(150, 48, kernel_size=(1, 1), stride=(1, 1), bias=False)
      )
      (conv2): Sequential(
        (0): BatchNorm2d(48, eps=1e-05, momentum=0.1, affine=True, track_running_stats=True)
        (1): ReLU(inplace=True)
        (2): Conv2d(48, 12, kernel_size=(1, 1), stride=(1, 1), bias=False)
      )
    )
    (4): BottleNeck(
      (conv1): Sequential(
        (0): BatchNorm2d(150, eps=1e-05, momentum=0.1, affine=True, track_running_stats=True)
        (1): ReLU(inplace=True)
        (2): Conv2d(150, 48, kernel_size=(1, 1), stride=(1, 1), bias=False)
      )
      (conv2): Sequential(
        (0): BatchNorm2d(48, eps=1e-05, momentum=0.1, affine=True, track_running_stats=True)
        (1): ReLU(inplace=True)
        (2): Conv2d(48, 12, kernel_size=(1, 1), stride=(1, 1), bias=False)
      )
    )
    (5): BottleNeck(
      (conv1): Sequential(
        (0): BatchNorm2d(150, eps=1e-05, momentum=0.1, affine=True, track_running_stats=True)
        (1): ReLU(inplace=True)
        (2): Conv2d(150, 48, kernel_size=(1, 1), stride=(1, 1), bias=False)
      )
      (conv2): Sequential(
        (0): BatchNorm2d(48, eps=1e-05, momentum=0.1, affine=True, track_running_stats=True)
        (1): ReLU(inplace=True)
        (2): Conv2d(48, 12, kernel_size=(1, 1), stride=(1, 1), bias=False)
      )
    )
    (6): BottleNeck(
      (conv1): Sequential(
        (0): BatchNorm2d(150, eps=1e-05, momentum=0.1, affine=True, track_running_stats=True)
        (1): ReLU(inplace=True)
        (2): Conv2d(150, 48, kernel_size=(1, 1), stride=(1, 1), bias=False)
      )
      (conv2): Sequential(
        (0): BatchNorm2d(48, eps=1e-05, momentum=0.1, affine=True, track_running_stats=True)
        (1): ReLU(inplace=True)
        (2): Conv2d(48, 12, kernel_size=(1, 1), stride=(1, 1), bias=False)
      )
    )
    (7): BottleNeck(
      (conv1): Sequential(
        (0): BatchNorm2d(150, eps=1e-05, momentum=0.1, affine=True, track_running_stats=True)
        (1): ReLU(inplace=True)
        (2): Conv2d(150, 48, kernel_size=(1, 1), stride=(1, 1), bias=False)
      )
      (conv2): Sequential(
        (0): BatchNorm2d(48, eps=1e-05, momentum=0.1, affine=True, track_running_stats=True)
        (1): ReLU(inplace=True)
        (2): Conv2d(48, 12, kernel_size=(1, 1), stride=(1, 1), bias=False)
      )
    )
    (8): BottleNeck(
      (conv1): Sequential(
        (0): BatchNorm2d(150, eps=1e-05, momentum=0.1, affine=True, track_running_stats=True)
        (1): ReLU(inplace=True)
        (2): Conv2d(150, 48, kernel_size=(1, 1), stride=(1, 1), bias=False)
      )
      (conv2): Sequential(
        (0): BatchNorm2d(48, eps=1e-05, momentum=0.1, affine=True, track_running_stats=True)
        (1): ReLU(inplace=True)
        (2): Conv2d(48, 12, kernel_size=(1, 1), stride=(1, 1), bias=False)
      )
    )
    (9): BottleNeck(
      (conv1): Sequential(
        (0): BatchNorm2d(150, eps=1e-05, momentum=0.1, affine=True, track_running_stats=True)
        (1): ReLU(inplace=True)
        (2): Conv2d(150, 48, kernel_size=(1, 1), stride=(1, 1), bias=False)
      )
      (conv2): Sequential(
        (0): BatchNorm2d(48, eps=1e-05, momentum=0.1, affine=True, track_running_stats=True)
        (1): ReLU(inplace=True)
        (2): Conv2d(48, 12, kernel_size=(1, 1), stride=(1, 1), bias=False)
      )
    )
    (10): BottleNeck(
      (conv1): Sequential(
        (0): BatchNorm2d(150, eps=1e-05, momentum=0.1, affine=True, track_running_stats=True)
        (1): ReLU(inplace=True)
        (2): Conv2d(150, 48, kernel_size=(1, 1), stride=(1, 1), bias=False)
      )
      (conv2): Sequential(
        (0): BatchNorm2d(48, eps=1e-05, momentum=0.1, affine=True, track_running_stats=True)
        (1): ReLU(inplace=True)
        (2): Conv2d(48, 12, kernel_size=(1, 1), stride=(1, 1), bias=False)
      )
    )
    (11): BottleNeck(
      (conv1): Sequential(
        (0): BatchNorm2d(150, eps=1e-05, momentum=0.1, affine=True, track_running_stats=True)
        (1): ReLU(inplace=True)
        (2): Conv2d(150, 48, kernel_size=(1, 1), stride=(1, 1), bias=False)
      )
      (conv2): Sequential(
        (0): BatchNorm2d(48, eps=1e-05, momentum=0.1, affine=True, track_running_stats=True)
        (1): ReLU(inplace=True)
        (2): Conv2d(48, 12, kernel_size=(1, 1), stride=(1, 1), bias=False)
      )
    )
    (12): BottleNeck(
      (conv1): Sequential(
        (0): BatchNorm2d(150, eps=1e-05, momentum=0.1, affine=True, track_running_stats=True)
        (1): ReLU(inplace=True)
        (2): Conv2d(150, 48, kernel_size=(1, 1), stride=(1, 1), bias=False)
      )
      (conv2): Sequential(
        (0): BatchNorm2d(48, eps=1e-05, momentum=0.1, affine=True, track_running_stats=True)
        (1): ReLU(inplace=True)
        (2): Conv2d(48, 12, kernel_size=(1, 1), stride=(1, 1), bias=False)
      )
    )
    (13): BottleNeck(
      (conv1): Sequential(
        (0): BatchNorm2d(150, eps=1e-05, momentum=0.1, affine=True, track_running_stats=True)
        (1): ReLU(inplace=True)
        (2): Conv2d(150, 48, kernel_size=(1, 1), stride=(1, 1), bias=False)
      )
      (conv2): Sequential(
        (0): BatchNorm2d(48, eps=1e-05, momentum=0.1, affine=True, track_running_stats=True)
        (1): ReLU(inplace=True)
        (2): Conv2d(48, 12, kernel_size=(1, 1), stride=(1, 1), bias=False)
      )
    )
    (14): BottleNeck(
      (conv1): Sequential(
        (0): BatchNorm2d(150, eps=1e-05, momentum=0.1, affine=True, track_running_stats=True)
        (1): ReLU(inplace=True)
        (2): Conv2d(150, 48, kernel_size=(1, 1), stride=(1, 1), bias=False)
      )
      (conv2): Sequential(
        (0): BatchNorm2d(48, eps=1e-05, momentum=0.1, affine=True, track_running_stats=True)
        (1): ReLU(inplace=True)
        (2): Conv2d(48, 12, kernel_size=(1, 1), stride=(1, 1), bias=False)
      )
    )
    (15): BottleNeck(
      (conv1): Sequential(
        (0): BatchNorm2d(150, eps=1e-05, momentum=0.1, affine=True, track_running_stats=True)
        (1): ReLU(inplace=True)
        (2): Conv2d(150, 48, kernel_size=(1, 1), stride=(1, 1), bias=False)
      )
      (conv2): Sequential(
        (0): BatchNorm2d(48, eps=1e-05, momentum=0.1, affine=True, track_running_stats=True)
        (1): ReLU(inplace=True)
        (2): Conv2d(48, 12, kernel_size=(1, 1), stride=(1, 1), bias=False)
      )
    )
  )
  (transition3): Sequential(
    (0): BatchNorm2d(342, eps=1e-05, momentum=0.1, affine=True, track_running_stats=True)
    (1): ReLU(inplace=True)
    (2): AvgPool2d(kernel_size=8, stride=1, padding=0)
  )
  (fc): Linear(in_features=342, out_features=100, bias=True)
)
[2019-08-26 17:48:49,406] - [train.py line:124] : =====total parameters:362848
[2019-08-26 17:48:54,520] - [train.py line:151] : ==============trian-test-file-pathLcifar100
[2019-08-26 17:48:54,520] - [train.py line:152] :             =======  Training  =======

[2019-08-26 17:48:54,521] - [train.py line:36] : ====Epoch:[1/250]====
[2019-08-26 17:53:
…
[2019-08-26 17:54:04,770] - [train.py line:120] : {'architecture': 'densebc_100_12', 'data_path': './data', 'ckpt_path': './', 'ckpt_name': 'densebc_100_12', 'num_classes': 100, 'dataset': 'cifar100', 'use_gpu': True, 'input_size': 32, 'epochs': 250, 'batch_size': 128, 'test_batch': 200, 'eval_freq': 2, 'workers': 4, 'optimize': {'momentum': 0.9, 'weight_decay': 0.0005, 'nesterov': True}, 'mixup': False, 'mixup_alpha': 0.4, 'augmentation': {'normalize': True, 'random_crop': True, 'random_horizontal_filp': True, 'cutout': False, 'holes': 1, 'length': 8}, 'lr_scheduler': {'type': 'STEP', 'base_lr': 0.1, 'lr_epochs': [100, 150, 200], 'lr_mults': 0.1, 'min_lr': 0.0, 'lower_bound': -6.0, 'upper_bound': 3.0}}
[2019-08-26 17:54:04,792] - [train.py line:123] : DenseNet(
  (conv1): Conv2d(3, 24, kernel_size=(3, 3), stride=(1, 1), padding=(1, 1), bias=False)
  (block1): Sequential(
    (0): BottleNeck(
      (conv1): Sequential(
        (0): BatchNorm2d(24, eps=1e-05, momentum=0.1, affine=True, track_running_stats=True)
        (1): ReLU(inplace=True)
        (2): Conv2d(24, 48, kernel_size=(1, 1), stride=(1, 1), bias=False)
      )
      (conv2): Sequential(
        (0): BatchNorm2d(48, eps=1e-05, momentum=0.1, affine=True, track_running_stats=True)
        (1): ReLU(inplace=True)
        (2): Conv2d(48, 12, kernel_size=(1, 1), stride=(1, 1), bias=False)
      )
    )
    (1): BottleNeck(
      (conv1): Sequential(
        (0): BatchNorm2d(36, eps=1e-05, momentum=0.1, affine=True, track_running_stats=True)
        (1): ReLU(inplace=True)
        (2): Conv2d(36, 48, kernel_size=(1, 1), stride=(1, 1), bias=False)
      )
      (conv2): Sequential(
        (0): BatchNorm2d(48, eps=1e-05, momentum=0.1, affine=True, track_running_stats=True)
        (1): ReLU(inplace=True)
        (2): Conv2d(48, 12, kernel_size=(1, 1), stride=(1, 1), bias=False)
      )
    )
    (2): BottleNeck(
      (conv1): Sequential(
        (0): BatchNorm2d(48, eps=1e-05, momentum=0.1, affine=True, track_running_stats=True)
        (1): ReLU(inplace=True)
        (2): Conv2d(48, 48, kernel_size=(1, 1), stride=(1, 1), bias=False)
      )
      (conv2): Sequential(
        (0): BatchNorm2d(48, eps=1e-05, momentum=0.1, affine=True, track_running_stats=True)
        (1): ReLU(inplace=True)
        (2): Conv2d(48, 12, kernel_size=(1, 1), stride=(1, 1), bias=False)
      )
    )
    (3): BottleNeck(
      (conv1): Sequential(
        (0): BatchNorm2d(60, eps=1e-05, momentum=0.1, affine=True, track_running_stats=True)
        (1): ReLU(inplace=True)
        (2): Conv2d(60, 48, kernel_size=(1, 1), stride=(1, 1), bias=False)
      )
      (conv2): Sequential(
        (0): BatchNorm2d(48, eps=1e-05, momentum=0.1, affine=True, track_running_stats=True)
        (1): ReLU(inplace=True)
        (2): Conv2d(48, 12, kernel_size=(1, 1), stride=(1, 1), bias=False)
      )
    )
    (4): BottleNeck(
      (conv1): Sequential(
        (0): BatchNorm2d(72, eps=1e-05, momentum=0.1, affine=True, track_running_stats=True)
        (1): ReLU(inplace=True)
        (2): Conv2d(72, 48, kernel_size=(1, 1), stride=(1, 1), bias=False)
      )
      (conv2): Sequential(
        (0): BatchNorm2d(48, eps=1e-05, momentum=0.1, affine=True, track_running_stats=True)
        (1): ReLU(inplace=True)
        (2): Conv2d(48, 12, kernel_size=(1, 1), stride=(1, 1), bias=False)
      )
    )
    (5): BottleNeck(
      (conv1): Sequential(
        (0): BatchNorm2d(84, eps=1e-05, momentum=0.1, affine=True, track_running_stats=True)
        (1): ReLU(inplace=True)
        (2): Conv2d(84, 48, kernel_size=(1, 1), stride=(1, 1), bias=False)
      )
      (conv2): Sequential(
        (0): BatchNorm2d(48, eps=1e-05, momentum=0.1, affine=True, track_running_stats=True)
        (1): ReLU(inplace=True)
        (2): Conv2d(48, 12, kernel_size=(1, 1), stride=(1, 1), bias=False)
      )
    )
    (6): BottleNeck(
      (conv1): Sequential(
        (0): BatchNorm2d(96, eps=1e-05, momentum=0.1, affine=True, track_running_stats=True)
        (1): ReLU(inplace=True)
        (2): Conv2d(96, 48, kernel_size=(1, 1), stride=(1, 1), bias=False)
      )
      (conv2): Sequential(
        (0): BatchNorm2d(48, eps=1e-05, momentum=0.1, affine=True, track_running_stats=True)
        (1): ReLU(inplace=True)
        (2): Conv2d(48, 12, kernel_size=(1, 1), stride=(1, 1), bias=False)
      )
    )
    (7): BottleNeck(
      (conv1): Sequential(
        (0): BatchNorm2d(108, eps=1e-05, momentum=0.1, affine=True, track_running_stats=True)
        (1): ReLU(inplace=True)
        (2): Conv2d(108, 48, kernel_size=(1, 1), stride=(1, 1), bias=False)
      )
      (conv2): Sequential(
        (0): BatchNorm2d(48, eps=1e-05, momentum=0.1, affine=True, track_running_stats=True)
        (1): ReLU(inplace=True)
        (2): Conv2d(48, 12, kernel_size=(1, 1), stride=(1, 1), bias=False)
      )
    )
    (8): BottleNeck(
      (conv1): Sequential(
        (0): BatchNorm2d(120, eps=1e-05, momentum=0.1, affine=True, track_running_stats=True)
        (1): ReLU(inplace=True)
        (2): Conv2d(120, 48, kernel_size=(1, 1), stride=(1, 1), bias=False)
      )
      (conv2): Sequential(
        (0): BatchNorm2d(48, eps=1e-05, momentum=0.1, affine=True, track_running_stats=True)
        (1): ReLU(inplace=True)
        (2): Conv2d(48, 12, kernel_size=(1, 1), stride=(1, 1), bias=False)
      )
    )
    (9): BottleNeck(
      (conv1): Sequential(
        (0): BatchNorm2d(132, eps=1e-05, momentum=0.1, affine=True, track_running_stats=True)
        (1): ReLU(inplace=True)
        (2): Conv2d(132, 48, kernel_size=(1, 1), stride=(1, 1), bias=False)
      )
      (conv2): Sequential(
        (0): BatchNorm2d(48, eps=1e-05, momentum=0.1, affine=True, track_running_stats=True)
        (1): ReLU(inplace=True)
        (2): Conv2d(48, 12, kernel_size=(1, 1), stride=(1, 1), bias=False)
      )
    )
    (10): BottleNeck(
      (conv1): Sequential(
        (0): BatchNorm2d(144, eps=1e-05, momentum=0.1, affine=True, track_running_stats=True)
        (1): ReLU(inplace=True)
        (2): Conv2d(144, 48, kernel_size=(1, 1), stride=(1, 1), bias=False)
      )
      (conv2): Sequential(
        (0): BatchNorm2d(48, eps=1e-05, momentum=0.1, affine=True, track_running_stats=True)
        (1): ReLU(inplace=True)
        (2): Conv2d(48, 12, kernel_size=(1, 1), stride=(1, 1), bias=False)
      )
    )
    (11): BottleNeck(
      (conv1): Sequential(
        (0): BatchNorm2d(156, eps=1e-05, momentum=0.1, affine=True, track_running_stats=True)
        (1): ReLU(inplace=True)
        (2): Conv2d(156, 48, kernel_size=(1, 1), stride=(1, 1), bias=False)
      )
      (conv2): Sequential(
        (0): BatchNorm2d(48, eps=1e-05, momentum=0.1, affine=True, track_running_stats=True)
        (1): ReLU(inplace=True)
        (2): Conv2d(48, 12, kernel_size=(1, 1), stride=(1, 1), bias=False)
      )
    )
    (12): BottleNeck(
      (conv1): Sequential(
        (0): BatchNorm2d(168, eps=1e-05, momentum=0.1, affine=True, track_running_stats=True)
        (1): ReLU(inplace=True)
        (2): Conv2d(168, 48, kernel_size=(1, 1), stride=(1, 1), bias=False)
      )
      (conv2): Sequential(
        (0): BatchNorm2d(48, eps=1e-05, momentum=0.1, affine=True, track_running_stats=True)
        (1): ReLU(inplace=True)
        (2): Conv2d(48, 12, kernel_size=(1, 1), stride=(1, 1), bias=False)
      )
    )
    (13): BottleNeck(
      (conv1): Sequential(
        (0): BatchNorm2d(180, eps=1e-05, momentum=0.1, affine=True, track_running_stats=True)
        (1): ReLU(inplace=True)
        (2): Conv2d(180, 48, kernel_size=(1, 1), stride=(1, 1), bias=False)
      )
      (conv2): Sequential(
        (0): BatchNorm2d(48, eps=1e-05, momentum=0.1, affine=True, track_running_stats=True)
        (1): ReLU(inplace=True)
        (2): Conv2d(48, 12, kernel_size=(1, 1), stride=(1, 1), bias=False)
      )
    )
    (14): BottleNeck(
      (conv1): Sequential(
        (0): BatchNorm2d(192, eps=1e-05, momentum=0.1, affine=True, track_running_stats=True)
        (1): ReLU(inplace=True)
        (2): Conv2d(192, 48, kernel_size=(1, 1), stride=(1, 1), bias=False)
      )
      (conv2): Sequential(
        (0): BatchNorm2d(48, eps=1e-05, momentum=0.1, affine=True, track_running_stats=True)
        (1): ReLU(inplace=True)
        (2): Conv2d(48, 12, kernel_size=(1, 1), stride=(1, 1), bias=False)
      )
    )
    (15): BottleNeck(
      (conv1): Sequential(
        (0): BatchNorm2d(204, eps=1e-05, momentum=0.1, affine=True, track_running_stats=True)
        (1): ReLU(inplace=True)
        (2): Conv2d(204, 48, kernel_size=(1, 1), stride=(1, 1), bias=False)
      )
      (conv2): Sequential(
        (0): BatchNorm2d(48, eps=1e-05, momentum=0.1, affine=True, track_running_stats=True)
        (1): ReLU(inplace=True)
        (2): Conv2d(48, 12, kernel_size=(1, 1), stride=(1, 1), bias=False)
      )
    )
  )
  (transition1): Sequential(
    (0): BatchNorm2d(216, eps=1e-05, momentum=0.1, affine=True, track_running_stats=True)
    (1): ReLU(inplace=True)
    (2): Conv2d(216, 108, kernel_size=(1, 1), stride=(1, 1), bias=False)
    (3): AvgPool2d(kernel_size=2, stride=2, padding=0)
  )
  (block2): Sequential(
    (0): BottleNeck(
      (conv1): Sequential(
        (0): BatchNorm2d(108, eps=1e-05, momentum=0.1, affine=True, track_running_stats=True)
        (1): ReLU(inplace=True)
        (2): Conv2d(108, 48, kernel_size=(1, 1), stride=(1, 1), bias=False)
      )
      (conv2): Sequential(
        (0): BatchNorm2d(48, eps=1e-05, momentum=0.1, affine=True, track_running_stats=True)
        (1): ReLU(inplace=True)
        (2): Conv2d(48, 12, kernel_size=(1, 1), stride=(1, 1), bias=False)
      )
    )
    (1): BottleNeck(
      (conv1): Sequential(
        (0): BatchNorm2d(120, eps=1e-05, momentum=0.1, affine=True, track_running_stats=True)
        (1): ReLU(inplace=True)
        (2): Conv2d(120, 48, kernel_size=(1, 1), stride=(1, 1), bias=False)
      )
      (conv2): Sequential(
        (0): BatchNorm2d(48, eps=1e-05, momentum=0.1, affine=True, track_running_stats=True)
        (1): ReLU(inplace=True)
        (2): Conv2d(48, 12, kernel_size=(1, 1), stride=(1, 1), bias=False)
      )
    )
    (2): BottleNeck(
      (conv1): Sequential(
        (0): BatchNorm2d(132, eps=1e-05, momentum=0.1, affine=True, track_running_stats=True)
        (1): ReLU(inplace=True)
        (2): Conv2d(132, 48, kernel_size=(1, 1), stride=(1, 1), bias=False)
      )
      (conv2): Sequential(
        (0): BatchNorm2d(48, eps=1e-05, momentum=0.1, affine=True, track_running_stats=True)
        (1): ReLU(inplace=True)
        (2): Conv2d(48, 12, kernel_size=(1, 1), stride=(1, 1), bias=False)
      )
    )
    (3): BottleNeck(
      (conv1): Sequential(
        (0): BatchNorm2d(144, eps=1e-05, momentum=0.1, affine=True, track_running_stats=True)
        (1): ReLU(inplace=True)
        (2): Conv2d(144, 48, kernel_size=(1, 1), stride=(1, 1), bias=False)
      )
      (conv2): Sequential(
        (0): BatchNorm2d(48, eps=1e-05, momentum=0.1, affine=True, track_running_stats=True)
        (1): ReLU(inplace=True)
        (2): Conv2d(48, 12, kernel_size=(1, 1), stride=(1, 1), bias=False)
      )
    )
    (4): BottleNeck(
      (conv1): Sequential(
        (0): BatchNorm2d(156, eps=1e-05, momentum=0.1, affine=True, track_running_stats=True)
        (1): ReLU(inplace=True)
        (2): Conv2d(156, 48, kernel_size=(1, 1), stride=(1, 1), bias=False)
      )
      (conv2): Sequential(
        (0): BatchNorm2d(48, eps=1e-05, momentum=0.1, affine=True, track_running_stats=True)
        (1): ReLU(inplace=True)
        (2): Conv2d(48, 12, kernel_size=(1, 1), stride=(1, 1), bias=False)
      )
    )
    (5): BottleNeck(
      (conv1): Sequential(
        (0): BatchNorm2d(168, eps=1e-05, momentum=0.1, affine=True, track_running_stats=True)
        (1): ReLU(inplace=True)
        (2): Conv2d(168, 48, kernel_size=(1, 1), stride=(1, 1), bias=False)
      )
      (conv2): Sequential(
        (0): BatchNorm2d(48, eps=1e-05, momentum=0.1, affine=True, track_running_stats=True)
        (1): ReLU(inplace=True)
        (2): Conv2d(48, 12, kernel_size=(1, 1), stride=(1, 1), bias=False)
      )
    )
    (6): BottleNeck(
      (conv1): Sequential(
        (0): BatchNorm2d(180, eps=1e-05, momentum=0.1, affine=True, track_running_stats=True)
        (1): ReLU(inplace=True)
        (2): Conv2d(180, 48, kernel_size=(1, 1), stride=(1, 1), bias=False)
      )
      (conv2): Sequential(
        (0): BatchNorm2d(48, eps=1e-05, momentum=0.1, affine=True, track_running_stats=True)
        (1): ReLU(inplace=True)
        (2): Conv2d(48, 12, kernel_size=(1, 1), stride=(1, 1), bias=False)
      )
    )
    (7): BottleNeck(
      (conv1): Sequential(
        (0): BatchNorm2d(192, eps=1e-05, momentum=0.1, affine=True, track_running_stats=True)
        (1): ReLU(inplace=True)
        (2): Conv2d(192, 48, kernel_size=(1, 1), stride=(1, 1), bias=False)
      )
      (conv2): Sequential(
        (0): BatchNorm2d(48, eps=1e-05, momentum=0.1, affine=True, track_running_stats=True)
        (1): ReLU(inplace=True)
        (2): Conv2d(48, 12, kernel_size=(1, 1), stride=(1, 1), bias=False)
      )
    )
    (8): BottleNeck(
      (conv1): Sequential(
        (0): BatchNorm2d(204, eps=1e-05, momentum=0.1, affine=True, track_running_stats=True)
        (1): ReLU(inplace=True)
        (2): Conv2d(204, 48, kernel_size=(1, 1), stride=(1, 1), bias=False)
      )
      (conv2): Sequential(
        (0): BatchNorm2d(48, eps=1e-05, momentum=0.1, affine=True, track_running_stats=True)
        (1): ReLU(inplace=True)
        (2): Conv2d(48, 12, kernel_size=(1, 1), stride=(1, 1), bias=False)
      )
    )
    (9): BottleNeck(
      (conv1): Sequential(
        (0): BatchNorm2d(216, eps=1e-05, momentum=0.1, affine=True, track_running_stats=True)
        (1): ReLU(inplace=True)
        (2): Conv2d(216, 48, kernel_size=(1, 1), stride=(1, 1), bias=False)
      )
      (conv2): Sequential(
        (0): BatchNorm2d(48, eps=1e-05, momentum=0.1, affine=True, track_running_stats=True)
        (1): ReLU(inplace=True)
        (2): Conv2d(48, 12, kernel_size=(1, 1), stride=(1, 1), bias=False)
      )
    )
    (10): BottleNeck(
      (conv1): Sequential(
        (0): BatchNorm2d(228, eps=1e-05, momentum=0.1, affine=True, track_running_stats=True)
        (1): ReLU(inplace=True)
        (2): Conv2d(228, 48, kernel_size=(1, 1), stride=(1, 1), bias=False)
      )
      (conv2): Sequential(
        (0): BatchNorm2d(48, eps=1e-05, momentum=0.1, affine=True, track_running_stats=True)
        (1): ReLU(inplace=True)
        (2): Conv2d(48, 12, kernel_size=(1, 1), stride=(1, 1), bias=False)
      )
    )
    (11): BottleNeck(
      (conv1): Sequential(
        (0): BatchNorm2d(240, eps=1e-05, momentum=0.1, affine=True, track_running_stats=True)
        (1): ReLU(inplace=True)
        (2): Conv2d(240, 48, kernel_size=(1, 1), stride=(1, 1), bias=False)
      )
      (conv2): Sequential(
        (0): BatchNorm2d(48, eps=1e-05, momentum=0.1, affine=True, track_running_stats=True)
        (1): ReLU(inplace=True)
        (2): Conv2d(48, 12, kernel_size=(1, 1), stride=(1, 1), bias=False)
      )
    )
    (12): BottleNeck(
      (conv1): Sequential(
        (0): BatchNorm2d(252, eps=1e-05, momentum=0.1, affine=True, track_running_stats=True)
        (1): ReLU(inplace=True)
        (2): Conv2d(252, 48, kernel_size=(1, 1), stride=(1, 1), bias=False)
      )
      (conv2): Sequential(
        (0): BatchNorm2d(48, eps=1e-05, momentum=0.1, affine=True, track_running_stats=True)
        (1): ReLU(inplace=True)
        (2): Conv2d(48, 12, kernel_size=(1, 1), stride=(1, 1), bias=False)
      )
    )
    (13): BottleNeck(
      (conv1): Sequential(
        (0): BatchNorm2d(264, eps=1e-05, momentum=0.1, affine=True, track_running_stats=True)
        (1): ReLU(inplace=True)
        (2): Conv2d(264, 48, kernel_size=(1, 1), stride=(1, 1), bias=False)
      )
      (conv2): Sequential(
        (0): BatchNorm2d(48, eps=1e-05, momentum=0.1, affine=True, track_running_stats=True)
        (1): ReLU(inplace=True)
        (2): Conv2d(48, 12, kernel_size=(1, 1), stride=(1, 1), bias=False)
      )
    )
    (14): BottleNeck(
      (conv1): Sequential(
        (0): BatchNorm2d(276, eps=1e-05, momentum=0.1, affine=True, track_running_stats=True)
        (1): ReLU(inplace=True)
        (2): Conv2d(276, 48, kernel_size=(1, 1), stride=(1, 1), bias=False)
      )
      (conv2): Sequential(
        (0): BatchNorm2d(48, eps=1e-05, momentum=0.1, affine=True, track_running_stats=True)
        (1): ReLU(inplace=True)
        (2): Conv2d(48, 12, kernel_size=(1, 1), stride=(1, 1), bias=False)
      )
    )
    (15): BottleNeck(
      (conv1): Sequential(
        (0): BatchNorm2d(288, eps=1e-05, momentum=0.1, affine=True, track_running_stats=True)
        (1): ReLU(inplace=True)
        (2): Conv2d(288, 48, kernel_size=(1, 1), stride=(1, 1), bias=False)
      )
      (conv2): Sequential(
        (0): BatchNorm2d(48, eps=1e-05, momentum=0.1, affine=True, track_running_stats=True)
        (1): ReLU(inplace=True)
        (2): Conv2d(48, 12, kernel_size=(1, 1), stride=(1, 1), bias=False)
      )
    )
  )
  (transition2): Sequential(
    (0): BatchNorm2d(300, eps=1e-05, momentum=0.1, affine=True, track_running_stats=True)
    (1): ReLU(inplace=True)
    (2): Conv2d(300, 150, kernel_size=(1, 1), stride=(1, 1), bias=False)
    (3): AvgPool2d(kernel_size=2, stride=2, padding=0)
  )
  (block3): Sequential(
    (0): BottleNeck(
      (conv1): Sequential(
        (0): BatchNorm2d(150, eps=1e-05, momentum=0.1, affine=True, track_running_stats=True)
        (1): ReLU(inplace=True)
        (2): Conv2d(150, 48, kernel_size=(1, 1), stride=(1, 1), bias=False)
      )
      (conv2): Sequential(
        (0): BatchNorm2d(48, eps=1e-05, momentum=0.1, affine=True, track_running_stats=True)
        (1): ReLU(inplace=True)
        (2): Conv2d(48, 12, kernel_size=(1, 1), stride=(1, 1), bias=False)
      )
    )
    (1): BottleNeck(
      (conv1): Sequential(
        (0): BatchNorm2d(162, eps=1e-05, momentum=0.1, affine=True, track_running_stats=True)
        (1): ReLU(inplace=True)
        (2): Conv2d(162, 48, kernel_size=(1, 1), stride=(1, 1), bias=False)
      )
      (conv2): Sequential(
        (0): BatchNorm2d(48, eps=1e-05, momentum=0.1, affine=True, track_running_stats=True)
        (1): ReLU(inplace=True)
        (2): Conv2d(48, 12, kernel_size=(1, 1), stride=(1, 1), bias=False)
      )
    )
    (2): BottleNeck(
      (conv1): Sequential(
        (0): BatchNorm2d(174, eps=1e-05, momentum=0.1, affine=True, track_running_stats=True)
        (1): ReLU(inplace=True)
        (2): Conv2d(174, 48, kernel_size=(1, 1), stride=(1, 1), bias=False)
      )
      (conv2): Sequential(
        (0): BatchNorm2d(48, eps=1e-05, momentum=0.1, affine=True, track_running_stats=True)
        (1): ReLU(inplace=True)
        (2): Conv2d(48, 12, kernel_size=(1, 1), stride=(1, 1), bias=False)
      )
    )
    (3): BottleNeck(
      (conv1): Sequential(
        (0): BatchNorm2d(186, eps=1e-05, momentum=0.1, affine=True, track_running_stats=True)
        (1): ReLU(inplace=True)
        (2): Conv2d(186, 48, kernel_size=(1, 1), stride=(1, 1), bias=False)
      )
      (conv2): Sequential(
        (0): BatchNorm2d(48, eps=1e-05, momentum=0.1, affine=True, track_running_stats=True)
        (1): ReLU(inplace=True)
        (2): Conv2d(48, 12, kernel_size=(1, 1), stride=(1, 1), bias=False)
      )
    )
    (4): BottleNeck(
      (conv1): Sequential(
        (0): BatchNorm2d(198, eps=1e-05, momentum=0.1, affine=True, track_running_stats=True)
        (1): ReLU(inplace=True)
        (2): Conv2d(198, 48, kernel_size=(1, 1), stride=(1, 1), bias=False)
      )
      (conv2): Sequential(
        (0): BatchNorm2d(48, eps=1e-05, momentum=0.1, affine=True, track_running_stats=True)
        (1): ReLU(inplace=True)
        (2): Conv2d(48, 12, kernel_size=(1, 1), stride=(1, 1), bias=False)
      )
    )
    (5): BottleNeck(
      (conv1): Sequential(
        (0): BatchNorm2d(210, eps=1e-05, momentum=0.1, affine=True, track_running_stats=True)
        (1): ReLU(inplace=True)
        (2): Conv2d(210, 48, kernel_size=(1, 1), stride=(1, 1), bias=False)
      )
      (conv2): Sequential(
        (0): BatchNorm2d(48, eps=1e-05, momentum=0.1, affine=True, track_running_stats=True)
        (1): ReLU(inplace=True)
        (2): Conv2d(48, 12, kernel_size=(1, 1), stride=(1, 1), bias=False)
      )
    )
    (6): BottleNeck(
      (conv1): Sequential(
        (0): BatchNorm2d(222, eps=1e-05, momentum=0.1, affine=True, track_running_stats=True)
        (1): ReLU(inplace=True)
        (2): Conv2d(222, 48, kernel_size=(1, 1), stride=(1, 1), bias=False)
      )
      (conv2): Sequential(
        (0): BatchNorm2d(48, eps=1e-05, momentum=0.1, affine=True, track_running_stats=True)
        (1): ReLU(inplace=True)
        (2): Conv2d(48, 12, kernel_size=(1, 1), stride=(1, 1), bias=False)
      )
    )
    (7): BottleNeck(
      (conv1): Sequential(
        (0): BatchNorm2d(234, eps=1e-05, momentum=0.1, affine=True, track_running_stats=True)
        (1): ReLU(inplace=True)
        (2): Conv2d(234, 48, kernel_size=(1, 1), stride=(1, 1), bias=False)
      )
      (conv2): Sequential(
        (0): BatchNorm2d(48, eps=1e-05, momentum=0.1, affine=True, track_running_stats=True)
        (1): ReLU(inplace=True)
        (2): Conv2d(48, 12, kernel_size=(1, 1), stride=(1, 1), bias=False)
      )
    )
    (8): BottleNeck(
      (conv1): Sequential(
        (0): BatchNorm2d(246, eps=1e-05, momentum=0.1, affine=True, track_running_stats=True)
        (1): ReLU(inplace=True)
        (2): Conv2d(246, 48, kernel_size=(1, 1), stride=(1, 1), bias=False)
      )
      (conv2): Sequential(
        (0): BatchNorm2d(48, eps=1e-05, momentum=0.1, affine=True, track_running_stats=True)
        (1): ReLU(inplace=True)
        (2): Conv2d(48, 12, kernel_size=(1, 1), stride=(1, 1), bias=False)
      )
    )
    (9): BottleNeck(
      (conv1): Sequential(
        (0): BatchNorm2d(258, eps=1e-05, momentum=0.1, affine=True, track_running_stats=True)
        (1): ReLU(inplace=True)
        (2): Conv2d(258, 48, kernel_size=(1, 1), stride=(1, 1), bias=False)
      )
      (conv2): Sequential(
        (0): BatchNorm2d(48, eps=1e-05, momentum=0.1, affine=True, track_running_stats=True)
        (1): ReLU(inplace=True)
        (2): Conv2d(48, 12, kernel_size=(1, 1), stride=(1, 1), bias=False)
      )
    )
    (10): BottleNeck(
      (conv1): Sequential(
        (0): BatchNorm2d(270, eps=1e-05, momentum=0.1, affine=True, track_running_stats=True)
        (1): ReLU(inplace=True)
        (2): Conv2d(270, 48, kernel_size=(1, 1), stride=(1, 1), bias=False)
      )
      (conv2): Sequential(
        (0): BatchNorm2d(48, eps=1e-05, momentum=0.1, affine=True, track_running_stats=True)
        (1): ReLU(inplace=True)
        (2): Conv2d(48, 12, kernel_size=(1, 1), stride=(1, 1), bias=False)
      )
    )
    (11): BottleNeck(
      (conv1): Sequential(
        (0): BatchNorm2d(282, eps=1e-05, momentum=0.1, affine=True, track_running_stats=True)
        (1): ReLU(inplace=True)
        (2): Conv2d(282, 48, kernel_size=(1, 1), stride=(1, 1), bias=False)
      )
      (conv2): Sequential(
        (0): BatchNorm2d(48, eps=1e-05, momentum=0.1, affine=True, track_running_stats=True)
        (1): ReLU(inplace=True)
        (2): Conv2d(48, 12, kernel_size=(1, 1), stride=(1, 1), bias=False)
      )
    )
    (12): BottleNeck(
      (conv1): Sequential(
        (0): BatchNorm2d(294, eps=1e-05, momentum=0.1, affine=True, track_running_stats=True)
        (1): ReLU(inplace=True)
        (2): Conv2d(294, 48, kernel_size=(1, 1), stride=(1, 1), bias=False)
      )
      (conv2): Sequential(
        (0): BatchNorm2d(48, eps=1e-05, momentum=0.1, affine=True, track_running_stats=True)
        (1): ReLU(inplace=True)
        (2): Conv2d(48, 12, kernel_size=(1, 1), stride=(1, 1), bias=False)
      )
    )
    (13): BottleNeck(
      (conv1): Sequential(
        (0): BatchNorm2d(306, eps=1e-05, momentum=0.1, affine=True, track_running_stats=True)
        (1): ReLU(inplace=True)
        (2): Conv2d(306, 48, kernel_size=(1, 1), stride=(1, 1), bias=False)
      )
      (conv2): Sequential(
        (0): BatchNorm2d(48, eps=1e-05, momentum=0.1, affine=True, track_running_stats=True)
        (1): ReLU(inplace=True)
        (2): Conv2d(48, 12, kernel_size=(1, 1), stride=(1, 1), bias=False)
      )
    )
    (14): BottleNeck(
      (conv1): Sequential(
        (0): BatchNorm2d(318, eps=1e-05, momentum=0.1, affine=True, track_running_stats=True)
        (1): ReLU(inplace=True)
        (2): Conv2d(318, 48, kernel_size=(1, 1), stride=(1, 1), bias=False)
      )
      (conv2): Sequential(
        (0): BatchNorm2d(48, eps=1e-05, momentum=0.1, affine=True, track_running_stats=True)
        (1): ReLU(inplace=True)
        (2): Conv2d(48, 12, kernel_size=(1, 1), stride=(1, 1), bias=False)
      )
    )
    (15): BottleNeck(
      (conv1): Sequential(
        (0): BatchNorm2d(330, eps=1e-05, momentum=0.1, affine=True, track_running_stats=True)
        (1): ReLU(inplace=True)
        (2): Conv2d(330, 48, kernel_size=(1, 1), stride=(1, 1), bias=False)
      )
      (conv2): Sequential(
        (0): BatchNorm2d(48, eps=1e-05, momentum=0.1, affine=True, track_running_stats=True)
        (1): ReLU(inplace=True)
        (2): Conv2d(48, 12, kernel_size=(1, 1), stride=(1, 1), bias=False)
      )
    )
  )
  (transition3): Sequential(
    (0): BatchNorm2d(342, eps=1e-05, momentum=0.1, affine=True, track_running_stats=True)
    (1): ReLU(inplace=True)
    (2): AvgPool2d(kernel_size=8, stride=1, padding=0)
  )
  (fc): Linear(in_features=342, out_features=100, bias=True)
)
[2019-08-26 17:54:04,797] - [train.py line:124] : =====total parameters:578848
[2019-08-26 17:54:08,948] - [train.py line:151] : ==============trian-test-file-pathLcifar100
[2019-08-26 17:54:08,948] - [train.py line:152] :             =======  Training  =======

[2019-08-26 17:54:08,949] - [train.py line:36] : ====Epoch:[1/250]====
[2019-08-26 17:54:28,124] - [train.py line:61] :    == step: [100/391], train loss: 4.221 | train acc:  5.828% | lr: 0.100000
…
[2019-08-26 18:11:30,983] - [train.py line:120] : {'architecture': 'densebc_100_12', 'data_path': './data', 'ckpt_path': './', 'ckpt_name': 'densebc_100_12', 'num_classes': 100, 'dataset': 'cifar100', 'use_gpu': True, 'input_size': 32, 'epochs': 300, 'batch_size': 128, 'test_batch': 200, 'eval_freq': 2, 'workers': 4, 'optimize': {'momentum': 0.9, 'weight_decay': 0.0005, 'nesterov': True}, 'mixup': False, 'mixup_alpha': 0.4, 'augmentation': {'normalize': True, 'random_crop': True, 'random_horizontal_filp': True, 'cutout': False, 'holes': 1, 'length': 8}, 'lr_scheduler': {'type': 'STEP', 'base_lr': 0.1, 'lr_epochs': [100, 150, 200], 'lr_mults': 0.1, 'min_lr': 0.0, 'lower_bound': -6.0, 'upper_bound': 3.0}}
[2019-08-26 18:11:31,006] - [train.py line:123] : DenseNet(
  (conv1): Conv2d(3, 24, kernel_size=(3, 3), stride=(1, 1), padding=(1, 1), bias=False)
  (block1): Sequential(
    (0): BottleNeck(
      (conv1): Sequential(
        (0): BatchNorm2d(24, eps=1e-05, momentum=0.1, affine=True, track_running_stats=True)
        (1): ReLU(inplace=True)
        (2): Conv2d(24, 48, kernel_size=(1, 1), stride=(1, 1), bias=False)
      )
      (conv2): Sequential(
        (0): BatchNorm2d(48, eps=1e-05, momentum=0.1, affine=True, track_running_stats=True)
        (1): ReLU(inplace=True)
        (2): Conv2d(48, 12, kernel_size=(3, 3), stride=(1, 1), padding=(1, 1), bias=False)
      )
    )
    (1): BottleNeck(
      (conv1): Sequential(
        (0): BatchNorm2d(36, eps=1e-05, momentum=0.1, affine=True, track_running_stats=True)
        (1): ReLU(inplace=True)
        (2): Conv2d(36, 48, kernel_size=(1, 1), stride=(1, 1), bias=False)
      )
      (conv2): Sequential(
        (0): BatchNorm2d(48, eps=1e-05, momentum=0.1, affine=True, track_running_stats=True)
        (1): ReLU(inplace=True)
        (2): Conv2d(48, 12, kernel_size=(3, 3), stride=(1, 1), padding=(1, 1), bias=False)
      )
    )
    (2): BottleNeck(
      (conv1): Sequential(
        (0): BatchNorm2d(48, eps=1e-05, momentum=0.1, affine=True, track_running_stats=True)
        (1): ReLU(inplace=True)
        (2): Conv2d(48, 48, kernel_size=(1, 1), stride=(1, 1), bias=False)
      )
      (conv2): Sequential(
        (0): BatchNorm2d(48, eps=1e-05, momentum=0.1, affine=True, track_running_stats=True)
        (1): ReLU(inplace=True)
        (2): Conv2d(48, 12, kernel_size=(3, 3), stride=(1, 1), padding=(1, 1), bias=False)
      )
    )
    (3): BottleNeck(
      (conv1): Sequential(
        (0): BatchNorm2d(60, eps=1e-05, momentum=0.1, affine=True, track_running_stats=True)
        (1): ReLU(inplace=True)
        (2): Conv2d(60, 48, kernel_size=(1, 1), stride=(1, 1), bias=False)
      )
      (conv2): Sequential(
        (0): BatchNorm2d(48, eps=1e-05, momentum=0.1, affine=True, track_running_stats=True)
        (1): ReLU(inplace=True)
        (2): Conv2d(48, 12, kernel_size=(3, 3), stride=(1, 1), padding=(1, 1), bias=False)
      )
    )
    (4): BottleNeck(
      (conv1): Sequential(
        (0): BatchNorm2d(72, eps=1e-05, momentum=0.1, affine=True, track_running_stats=True)
        (1): ReLU(inplace=True)
        (2): Conv2d(72, 48, kernel_size=(1, 1), stride=(1, 1), bias=False)
      )
      (conv2): Sequential(
        (0): BatchNorm2d(48, eps=1e-05, momentum=0.1, affine=True, track_running_stats=True)
        (1): ReLU(inplace=True)
        (2): Conv2d(48, 12, kernel_size=(3, 3), stride=(1, 1), padding=(1, 1), bias=False)
      )
    )
    (5): BottleNeck(
      (conv1): Sequential(
        (0): BatchNorm2d(84, eps=1e-05, momentum=0.1, affine=True, track_running_stats=True)
        (1): ReLU(inplace=True)
        (2): Conv2d(84, 48, kernel_size=(1, 1), stride=(1, 1), bias=False)
      )
      (conv2): Sequential(
        (0): BatchNorm2d(48, eps=1e-05, momentum=0.1, affine=True, track_running_stats=True)
        (1): ReLU(inplace=True)
        (2): Conv2d(48, 12, kernel_size=(3, 3), stride=(1, 1), padding=(1, 1), bias=False)
      )
    )
    (6): BottleNeck(
      (conv1): Sequential(
        (0): BatchNorm2d(96, eps=1e-05, momentum=0.1, affine=True, track_running_stats=True)
        (1): ReLU(inplace=True)
        (2): Conv2d(96, 48, kernel_size=(1, 1), stride=(1, 1), bias=False)
      )
      (conv2): Sequential(
        (0): BatchNorm2d(48, eps=1e-05, momentum=0.1, affine=True, track_running_stats=True)
        (1): ReLU(inplace=True)
        (2): Conv2d(48, 12, kernel_size=(3, 3), stride=(1, 1), padding=(1, 1), bias=False)
      )
    )
    (7): BottleNeck(
      (conv1): Sequential(
        (0): BatchNorm2d(108, eps=1e-05, momentum=0.1, affine=True, track_running_stats=True)
        (1): ReLU(inplace=True)
        (2): Conv2d(108, 48, kernel_size=(1, 1), stride=(1, 1), bias=False)
      )
      (conv2): Sequential(
        (0): BatchNorm2d(48, eps=1e-05, momentum=0.1, affine=True, track_running_stats=True)
        (1): ReLU(inplace=True)
        (2): Conv2d(48, 12, kernel_size=(3, 3), stride=(1, 1), padding=(1, 1), bias=False)
      )
    )
    (8): BottleNeck(
      (conv1): Sequential(
        (0): BatchNorm2d(120, eps=1e-05, momentum=0.1, affine=True, track_running_stats=True)
        (1): ReLU(inplace=True)
        (2): Conv2d(120, 48, kernel_size=(1, 1), stride=(1, 1), bias=False)
      )
      (conv2): Sequential(
        (0): BatchNorm2d(48, eps=1e-05, momentum=0.1, affine=True, track_running_stats=True)
        (1): ReLU(inplace=True)
        (2): Conv2d(48, 12, kernel_size=(3, 3), stride=(1, 1), padding=(1, 1), bias=False)
      )
    )
    (9): BottleNeck(
      (conv1): Sequential(
        (0): BatchNorm2d(132, eps=1e-05, momentum=0.1, affine=True, track_running_stats=True)
        (1): ReLU(inplace=True)
        (2): Conv2d(132, 48, kernel_size=(1, 1), stride=(1, 1), bias=False)
      )
      (conv2): Sequential(
        (0): BatchNorm2d(48, eps=1e-05, momentum=0.1, affine=True, track_running_stats=True)
        (1): ReLU(inplace=True)
        (2): Conv2d(48, 12, kernel_size=(3, 3), stride=(1, 1), padding=(1, 1), bias=False)
      )
    )
    (10): BottleNeck(
      (conv1): Sequential(
        (0): BatchNorm2d(144, eps=1e-05, momentum=0.1, affine=True, track_running_stats=True)
        (1): ReLU(inplace=True)
        (2): Conv2d(144, 48, kernel_size=(1, 1), stride=(1, 1), bias=False)
      )
      (conv2): Sequential(
        (0): BatchNorm2d(48, eps=1e-05, momentum=0.1, affine=True, track_running_stats=True)
        (1): ReLU(inplace=True)
        (2): Conv2d(48, 12, kernel_size=(3, 3), stride=(1, 1), padding=(1, 1), bias=False)
      )
    )
    (11): BottleNeck(
      (conv1): Sequential(
        (0): BatchNorm2d(156, eps=1e-05, momentum=0.1, affine=True, track_running_stats=True)
        (1): ReLU(inplace=True)
        (2): Conv2d(156, 48, kernel_size=(1, 1), stride=(1, 1), bias=False)
      )
      (conv2): Sequential(
        (0): BatchNorm2d(48, eps=1e-05, momentum=0.1, affine=True, track_running_stats=True)
        (1): ReLU(inplace=True)
        (2): Conv2d(48, 12, kernel_size=(3, 3), stride=(1, 1), padding=(1, 1), bias=False)
      )
    )
    (12): BottleNeck(
      (conv1): Sequential(
        (0): BatchNorm2d(168, eps=1e-05, momentum=0.1, affine=True, track_running_stats=True)
        (1): ReLU(inplace=True)
        (2): Conv2d(168, 48, kernel_size=(1, 1), stride=(1, 1), bias=False)
      )
      (conv2): Sequential(
        (0): BatchNorm2d(48, eps=1e-05, momentum=0.1, affine=True, track_running_stats=True)
        (1): ReLU(inplace=True)
        (2): Conv2d(48, 12, kernel_size=(3, 3), stride=(1, 1), padding=(1, 1), bias=False)
      )
    )
    (13): BottleNeck(
      (conv1): Sequential(
        (0): BatchNorm2d(180, eps=1e-05, momentum=0.1, affine=True, track_running_stats=True)
        (1): ReLU(inplace=True)
        (2): Conv2d(180, 48, kernel_size=(1, 1), stride=(1, 1), bias=False)
      )
      (conv2): Sequential(
        (0): BatchNorm2d(48, eps=1e-05, momentum=0.1, affine=True, track_running_stats=True)
        (1): ReLU(inplace=True)
        (2): Conv2d(48, 12, kernel_size=(3, 3), stride=(1, 1), padding=(1, 1), bias=False)
      )
    )
    (14): BottleNeck(
      (conv1): Sequential(
        (0): BatchNorm2d(192, eps=1e-05, momentum=0.1, affine=True, track_running_stats=True)
        (1): ReLU(inplace=True)
        (2): Conv2d(192, 48, kernel_size=(1, 1), stride=(1, 1), bias=False)
      )
      (conv2): Sequential(
        (0): BatchNorm2d(48, eps=1e-05, momentum=0.1, affine=True, track_running_stats=True)
        (1): ReLU(inplace=True)
        (2): Conv2d(48, 12, kernel_size=(3, 3), stride=(1, 1), padding=(1, 1), bias=False)
      )
    )
    (15): BottleNeck(
      (conv1): Sequential(
        (0): BatchNorm2d(204, eps=1e-05, momentum=0.1, affine=True, track_running_stats=True)
        (1): ReLU(inplace=True)
        (2): Conv2d(204, 48, kernel_size=(1, 1), stride=(1, 1), bias=False)
      )
      (conv2): Sequential(
        (0): BatchNorm2d(48, eps=1e-05, momentum=0.1, affine=True, track_running_stats=True)
        (1): ReLU(inplace=True)
        (2): Conv2d(48, 12, kernel_size=(3, 3), stride=(1, 1), padding=(1, 1), bias=False)
      )
    )
  )
  (transition1): Sequential(
    (0): BatchNorm2d(216, eps=1e-05, momentum=0.1, affine=True, track_running_stats=True)
    (1): ReLU(inplace=True)
    (2): Conv2d(216, 108, kernel_size=(1, 1), stride=(1, 1), bias=False)
    (3): AvgPool2d(kernel_size=2, stride=2, padding=0)
  )
  (block2): Sequential(
    (0): BottleNeck(
      (conv1): Sequential(
        (0): BatchNorm2d(108, eps=1e-05, momentum=0.1, affine=True, track_running_stats=True)
        (1): ReLU(inplace=True)
        (2): Conv2d(108, 48, kernel_size=(1, 1), stride=(1, 1), bias=False)
      )
      (conv2): Sequential(
        (0): BatchNorm2d(48, eps=1e-05, momentum=0.1, affine=True, track_running_stats=True)
        (1): ReLU(inplace=True)
        (2): Conv2d(48, 12, kernel_size=(3, 3), stride=(1, 1), padding=(1, 1), bias=False)
      )
    )
    (1): BottleNeck(
      (conv1): Sequential(
        (0): BatchNorm2d(120, eps=1e-05, momentum=0.1, affine=True, track_running_stats=True)
        (1): ReLU(inplace=True)
        (2): Conv2d(120, 48, kernel_size=(1, 1), stride=(1, 1), bias=False)
      )
      (conv2): Sequential(
        (0): BatchNorm2d(48, eps=1e-05, momentum=0.1, affine=True, track_running_stats=True)
        (1): ReLU(inplace=True)
        (2): Conv2d(48, 12, kernel_size=(3, 3), stride=(1, 1), padding=(1, 1), bias=False)
      )
    )
    (2): BottleNeck(
      (conv1): Sequential(
        (0): BatchNorm2d(132, eps=1e-05, momentum=0.1, affine=True, track_running_stats=True)
        (1): ReLU(inplace=True)
        (2): Conv2d(132, 48, kernel_size=(1, 1), stride=(1, 1), bias=False)
      )
      (conv2): Sequential(
        (0): BatchNorm2d(48, eps=1e-05, momentum=0.1, affine=True, track_running_stats=True)
        (1): ReLU(inplace=True)
        (2): Conv2d(48, 12, kernel_size=(3, 3), stride=(1, 1), padding=(1, 1), bias=False)
      )
    )
    (3): BottleNeck(
      (conv1): Sequential(
        (0): BatchNorm2d(144, eps=1e-05, momentum=0.1, affine=True, track_running_stats=True)
        (1): ReLU(inplace=True)
        (2): Conv2d(144, 48, kernel_size=(1, 1), stride=(1, 1), bias=False)
      )
      (conv2): Sequential(
        (0): BatchNorm2d(48, eps=1e-05, momentum=0.1, affine=True, track_running_stats=True)
        (1): ReLU(inplace=True)
        (2): Conv2d(48, 12, kernel_size=(3, 3), stride=(1, 1), padding=(1, 1), bias=False)
      )
    )
    (4): BottleNeck(
      (conv1): Sequential(
        (0): BatchNorm2d(156, eps=1e-05, momentum=0.1, affine=True, track_running_stats=True)
        (1): ReLU(inplace=True)
        (2): Conv2d(156, 48, kernel_size=(1, 1), stride=(1, 1), bias=False)
      )
      (conv2): Sequential(
        (0): BatchNorm2d(48, eps=1e-05, momentum=0.1, affine=True, track_running_stats=True)
        (1): ReLU(inplace=True)
        (2): Conv2d(48, 12, kernel_size=(3, 3), stride=(1, 1), padding=(1, 1), bias=False)
      )
    )
    (5): BottleNeck(
      (conv1): Sequential(
        (0): BatchNorm2d(168, eps=1e-05, momentum=0.1, affine=True, track_running_stats=True)
        (1): ReLU(inplace=True)
        (2): Conv2d(168, 48, kernel_size=(1, 1), stride=(1, 1), bias=False)
      )
      (conv2): Sequential(
        (0): BatchNorm2d(48, eps=1e-05, momentum=0.1, affine=True, track_running_stats=True)
        (1): ReLU(inplace=True)
        (2): Conv2d(48, 12, kernel_size=(3, 3), stride=(1, 1), padding=(1, 1), bias=False)
      )
    )
    (6): BottleNeck(
      (conv1): Sequential(
        (0): BatchNorm2d(180, eps=1e-05, momentum=0.1, affine=True, track_running_stats=True)
        (1): ReLU(inplace=True)
        (2): Conv2d(180, 48, kernel_size=(1, 1), stride=(1, 1), bias=False)
      )
      (conv2): Sequential(
        (0): BatchNorm2d(48, eps=1e-05, momentum=0.1, affine=True, track_running_stats=True)
        (1): ReLU(inplace=True)
        (2): Conv2d(48, 12, kernel_size=(3, 3), stride=(1, 1), padding=(1, 1), bias=False)
      )
    )
    (7): BottleNeck(
      (conv1): Sequential(
        (0): BatchNorm2d(192, eps=1e-05, momentum=0.1, affine=True, track_running_stats=True)
        (1): ReLU(inplace=True)
        (2): Conv2d(192, 48, kernel_size=(1, 1), stride=(1, 1), bias=False)
      )
      (conv2): Sequential(
        (0): BatchNorm2d(48, eps=1e-05, momentum=0.1, affine=True, track_running_stats=True)
        (1): ReLU(inplace=True)
        (2): Conv2d(48, 12, kernel_size=(3, 3), stride=(1, 1), padding=(1, 1), bias=False)
      )
    )
    (8): BottleNeck(
      (conv1): Sequential(
        (0): BatchNorm2d(204, eps=1e-05, momentum=0.1, affine=True, track_running_stats=True)
        (1): ReLU(inplace=True)
        (2): Conv2d(204, 48, kernel_size=(1, 1), stride=(1, 1), bias=False)
      )
      (conv2): Sequential(
        (0): BatchNorm2d(48, eps=1e-05, momentum=0.1, affine=True, track_running_stats=True)
        (1): ReLU(inplace=True)
        (2): Conv2d(48, 12, kernel_size=(3, 3), stride=(1, 1), padding=(1, 1), bias=False)
      )
    )
    (9): BottleNeck(
      (conv1): Sequential(
        (0): BatchNorm2d(216, eps=1e-05, momentum=0.1, affine=True, track_running_stats=True)
        (1): ReLU(inplace=True)
        (2): Conv2d(216, 48, kernel_size=(1, 1), stride=(1, 1), bias=False)
      )
      (conv2): Sequential(
        (0): BatchNorm2d(48, eps=1e-05, momentum=0.1, affine=True, track_running_stats=True)
        (1): ReLU(inplace=True)
        (2): Conv2d(48, 12, kernel_size=(3, 3), stride=(1, 1), padding=(1, 1), bias=False)
      )
    )
    (10): BottleNeck(
      (conv1): Sequential(
        (0): BatchNorm2d(228, eps=1e-05, momentum=0.1, affine=True, track_running_stats=True)
        (1): ReLU(inplace=True)
        (2): Conv2d(228, 48, kernel_size=(1, 1), stride=(1, 1), bias=False)
      )
      (conv2): Sequential(
        (0): BatchNorm2d(48, eps=1e-05, momentum=0.1, affine=True, track_running_stats=True)
        (1): ReLU(inplace=True)
        (2): Conv2d(48, 12, kernel_size=(3, 3), stride=(1, 1), padding=(1, 1), bias=False)
      )
    )
    (11): BottleNeck(
      (conv1): Sequential(
        (0): BatchNorm2d(240, eps=1e-05, momentum=0.1, affine=True, track_running_stats=True)
        (1): ReLU(inplace=True)
        (2): Conv2d(240, 48, kernel_size=(1, 1), stride=(1, 1), bias=False)
      )
      (conv2): Sequential(
        (0): BatchNorm2d(48, eps=1e-05, momentum=0.1, affine=True, track_running_stats=True)
        (1): ReLU(inplace=True)
        (2): Conv2d(48, 12, kernel_size=(3, 3), stride=(1, 1), padding=(1, 1), bias=False)
      )
    )
    (12): BottleNeck(
      (conv1): Sequential(
        (0): BatchNorm2d(252, eps=1e-05, momentum=0.1, affine=True, track_running_stats=True)
        (1): ReLU(inplace=True)
        (2): Conv2d(252, 48, kernel_size=(1, 1), stride=(1, 1), bias=False)
      )
      (conv2): Sequential(
        (0): BatchNorm2d(48, eps=1e-05, momentum=0.1, affine=True, track_running_stats=True)
        (1): ReLU(inplace=True)
        (2): Conv2d(48, 12, kernel_size=(3, 3), stride=(1, 1), padding=(1, 1), bias=False)
      )
    )
    (13): BottleNeck(
      (conv1): Sequential(
        (0): BatchNorm2d(264, eps=1e-05, momentum=0.1, affine=True, track_running_stats=True)
        (1): ReLU(inplace=True)
        (2): Conv2d(264, 48, kernel_size=(1, 1), stride=(1, 1), bias=False)
      )
      (conv2): Sequential(
        (0): BatchNorm2d(48, eps=1e-05, momentum=0.1, affine=True, track_running_stats=True)
        (1): ReLU(inplace=True)
        (2): Conv2d(48, 12, kernel_size=(3, 3), stride=(1, 1), padding=(1, 1), bias=False)
      )
    )
    (14): BottleNeck(
      (conv1): Sequential(
        (0): BatchNorm2d(276, eps=1e-05, momentum=0.1, affine=True, track_running_stats=True)
        (1): ReLU(inplace=True)
        (2): Conv2d(276, 48, kernel_size=(1, 1), stride=(1, 1), bias=False)
      )
      (conv2): Sequential(
        (0): BatchNorm2d(48, eps=1e-05, momentum=0.1, affine=True, track_running_stats=True)
        (1): ReLU(inplace=True)
        (2): Conv2d(48, 12, kernel_size=(3, 3), stride=(1, 1), padding=(1, 1), bias=False)
      )
    )
    (15): BottleNeck(
      (conv1): Sequential(
        (0): BatchNorm2d(288, eps=1e-05, momentum=0.1, affine=True, track_running_stats=True)
        (1): ReLU(inplace=True)
        (2): Conv2d(288, 48, kernel_size=(1, 1), stride=(1, 1), bias=False)
      )
      (conv2): Sequential(
        (0): BatchNorm2d(48, eps=1e-05, momentum=0.1, affine=True, track_running_stats=True)
        (1): ReLU(inplace=True)
        (2): Conv2d(48, 12, kernel_size=(3, 3), stride=(1, 1), padding=(1, 1), bias=False)
      )
    )
  )
  (transition2): Sequential(
    (0): BatchNorm2d(300, eps=1e-05, momentum=0.1, affine=True, track_running_stats=True)
    (1): ReLU(inplace=True)
    (2): Conv2d(300, 150, kernel_size=(1, 1), stride=(1, 1), bias=False)
    (3): AvgPool2d(kernel_size=2, stride=2, padding=0)
  )
  (block3): Sequential(
    (0): BottleNeck(
      (conv1): Sequential(
        (0): BatchNorm2d(150, eps=1e-05, momentum=0.1, affine=True, track_running_stats=True)
        (1): ReLU(inplace=True)
        (2): Conv2d(150, 48, kernel_size=(1, 1), stride=(1, 1), bias=False)
      )
      (conv2): Sequential(
        (0): BatchNorm2d(48, eps=1e-05, momentum=0.1, affine=True, track_running_stats=True)
        (1): ReLU(inplace=True)
        (2): Conv2d(48, 12, kernel_size=(3, 3), stride=(1, 1), padding=(1, 1), bias=False)
      )
    )
    (1): BottleNeck(
      (conv1): Sequential(
        (0): BatchNorm2d(162, eps=1e-05, momentum=0.1, affine=True, track_running_stats=True)
        (1): ReLU(inplace=True)
        (2): Conv2d(162, 48, kernel_size=(1, 1), stride=(1, 1), bias=False)
      )
      (conv2): Sequential(
        (0): BatchNorm2d(48, eps=1e-05, momentum=0.1, affine=True, track_running_stats=True)
        (1): ReLU(inplace=True)
        (2): Conv2d(48, 12, kernel_size=(3, 3), stride=(1, 1), padding=(1, 1), bias=False)
      )
    )
    (2): BottleNeck(
      (conv1): Sequential(
        (0): BatchNorm2d(174, eps=1e-05, momentum=0.1, affine=True, track_running_stats=True)
        (1): ReLU(inplace=True)
        (2): Conv2d(174, 48, kernel_size=(1, 1), stride=(1, 1), bias=False)
      )
      (conv2): Sequential(
        (0): BatchNorm2d(48, eps=1e-05, momentum=0.1, affine=True, track_running_stats=True)
        (1): ReLU(inplace=True)
        (2): Conv2d(48, 12, kernel_size=(3, 3), stride=(1, 1), padding=(1, 1), bias=False)
      )
    )
    (3): BottleNeck(
      (conv1): Sequential(
        (0): BatchNorm2d(186, eps=1e-05, momentum=0.1, affine=True, track_running_stats=True)
        (1): ReLU(inplace=True)
        (2): Conv2d(186, 48, kernel_size=(1, 1), stride=(1, 1), bias=False)
      )
      (conv2): Sequential(
        (0): BatchNorm2d(48, eps=1e-05, momentum=0.1, affine=True, track_running_stats=True)
        (1): ReLU(inplace=True)
        (2): Conv2d(48, 12, kernel_size=(3, 3), stride=(1, 1), padding=(1, 1), bias=False)
      )
    )
    (4): BottleNeck(
      (conv1): Sequential(
        (0): BatchNorm2d(198, eps=1e-05, momentum=0.1, affine=True, track_running_stats=True)
        (1): ReLU(inplace=True)
        (2): Conv2d(198, 48, kernel_size=(1, 1), stride=(1, 1), bias=False)
      )
      (conv2): Sequential(
        (0): BatchNorm2d(48, eps=1e-05, momentum=0.1, affine=True, track_running_stats=True)
        (1): ReLU(inplace=True)
        (2): Conv2d(48, 12, kernel_size=(3, 3), stride=(1, 1), padding=(1, 1), bias=False)
      )
    )
    (5): BottleNeck(
      (conv1): Sequential(
        (0): BatchNorm2d(210, eps=1e-05, momentum=0.1, affine=True, track_running_stats=True)
        (1): ReLU(inplace=True)
        (2): Conv2d(210, 48, kernel_size=(1, 1), stride=(1, 1), bias=False)
      )
      (conv2): Sequential(
        (0): BatchNorm2d(48, eps=1e-05, momentum=0.1, affine=True, track_running_stats=True)
        (1): ReLU(inplace=True)
        (2): Conv2d(48, 12, kernel_size=(3, 3), stride=(1, 1), padding=(1, 1), bias=False)
      )
    )
    (6): BottleNeck(
      (conv1): Sequential(
        (0): BatchNorm2d(222, eps=1e-05, momentum=0.1, affine=True, track_running_stats=True)
        (1): ReLU(inplace=True)
        (2): Conv2d(222, 48, kernel_size=(1, 1), stride=(1, 1), bias=False)
      )
      (conv2): Sequential(
        (0): BatchNorm2d(48, eps=1e-05, momentum=0.1, affine=True, track_running_stats=True)
        (1): ReLU(inplace=True)
        (2): Conv2d(48, 12, kernel_size=(3, 3), stride=(1, 1), padding=(1, 1), bias=False)
      )
    )
    (7): BottleNeck(
      (conv1): Sequential(
        (0): BatchNorm2d(234, eps=1e-05, momentum=0.1, affine=True, track_running_stats=True)
        (1): ReLU(inplace=True)
        (2): Conv2d(234, 48, kernel_size=(1, 1), stride=(1, 1), bias=False)
      )
      (conv2): Sequential(
        (0): BatchNorm2d(48, eps=1e-05, momentum=0.1, affine=True, track_running_stats=True)
        (1): ReLU(inplace=True)
        (2): Conv2d(48, 12, kernel_size=(3, 3), stride=(1, 1), padding=(1, 1), bias=False)
      )
    )
    (8): BottleNeck(
      (conv1): Sequential(
        (0): BatchNorm2d(246, eps=1e-05, momentum=0.1, affine=True, track_running_stats=True)
        (1): ReLU(inplace=True)
        (2): Conv2d(246, 48, kernel_size=(1, 1), stride=(1, 1), bias=False)
      )
      (conv2): Sequential(
        (0): BatchNorm2d(48, eps=1e-05, momentum=0.1, affine=True, track_running_stats=True)
        (1): ReLU(inplace=True)
        (2): Conv2d(48, 12, kernel_size=(3, 3), stride=(1, 1), padding=(1, 1), bias=False)
      )
    )
    (9): BottleNeck(
      (conv1): Sequential(
        (0): BatchNorm2d(258, eps=1e-05, momentum=0.1, affine=True, track_running_stats=True)
        (1): ReLU(inplace=True)
        (2): Conv2d(258, 48, kernel_size=(1, 1), stride=(1, 1), bias=False)
      )
      (conv2): Sequential(
        (0): BatchNorm2d(48, eps=1e-05, momentum=0.1, affine=True, track_running_stats=True)
        (1): ReLU(inplace=True)
        (2): Conv2d(48, 12, kernel_size=(3, 3), stride=(1, 1), padding=(1, 1), bias=False)
      )
    )
    (10): BottleNeck(
      (conv1): Sequential(
        (0): BatchNorm2d(270, eps=1e-05, momentum=0.1, affine=True, track_running_stats=True)
        (1): ReLU(inplace=True)
        (2): Conv2d(270, 48, kernel_size=(1, 1), stride=(1, 1), bias=False)
      )
      (conv2): Sequential(
        (0): BatchNorm2d(48, eps=1e-05, momentum=0.1, affine=True, track_running_stats=True)
        (1): ReLU(inplace=True)
        (2): Conv2d(48, 12, kernel_size=(3, 3), stride=(1, 1), padding=(1, 1), bias=False)
      )
    )
    (11): BottleNeck(
      (conv1): Sequential(
        (0): BatchNorm2d(282, eps=1e-05, momentum=0.1, affine=True, track_running_stats=True)
        (1): ReLU(inplace=True)
        (2): Conv2d(282, 48, kernel_size=(1, 1), stride=(1, 1), bias=False)
      )
      (conv2): Sequential(
        (0): BatchNorm2d(48, eps=1e-05, momentum=0.1, affine=True, track_running_stats=True)
        (1): ReLU(inplace=True)
        (2): Conv2d(48, 12, kernel_size=(3, 3), stride=(1, 1), padding=(1, 1), bias=False)
      )
    )
    (12): BottleNeck(
      (conv1): Sequential(
        (0): BatchNorm2d(294, eps=1e-05, momentum=0.1, affine=True, track_running_stats=True)
        (1): ReLU(inplace=True)
        (2): Conv2d(294, 48, kernel_size=(1, 1), stride=(1, 1), bias=False)
      )
      (conv2): Sequential(
        (0): BatchNorm2d(48, eps=1e-05, momentum=0.1, affine=True, track_running_stats=True)
        (1): ReLU(inplace=True)
        (2): Conv2d(48, 12, kernel_size=(3, 3), stride=(1, 1), padding=(1, 1), bias=False)
      )
    )
    (13): BottleNeck(
      (conv1): Sequential(
        (0): BatchNorm2d(306, eps=1e-05, momentum=0.1, affine=True, track_running_stats=True)
        (1): ReLU(inplace=True)
        (2): Conv2d(306, 48, kernel_size=(1, 1), stride=(1, 1), bias=False)
      )
      (conv2): Sequential(
        (0): BatchNorm2d(48, eps=1e-05, momentum=0.1, affine=True, track_running_stats=True)
        (1): ReLU(inplace=True)
        (2): Conv2d(48, 12, kernel_size=(3, 3), stride=(1, 1), padding=(1, 1), bias=False)
      )
    )
    (14): BottleNeck(
      (conv1): Sequential(
        (0): BatchNorm2d(318, eps=1e-05, momentum=0.1, affine=True, track_running_stats=True)
        (1): ReLU(inplace=True)
        (2): Conv2d(318, 48, kernel_size=(1, 1), stride=(1, 1), bias=False)
      )
      (conv2): Sequential(
        (0): BatchNorm2d(48, eps=1e-05, momentum=0.1, affine=True, track_running_stats=True)
        (1): ReLU(inplace=True)
        (2): Conv2d(48, 12, kernel_size=(3, 3), stride=(1, 1), padding=(1, 1), bias=False)
      )
    )
    (15): BottleNeck(
      (conv1): Sequential(
        (0): BatchNorm2d(330, eps=1e-05, momentum=0.1, affine=True, track_running_stats=True)
        (1): ReLU(inplace=True)
        (2): Conv2d(330, 48, kernel_size=(1, 1), stride=(1, 1), bias=False)
      )
      (conv2): Sequential(
        (0): BatchNorm2d(48, eps=1e-05, momentum=0.1, affine=True, track_running_stats=True)
        (1): ReLU(inplace=True)
        (2): Conv2d(48, 12, kernel_size=(3, 3), stride=(1, 1), padding=(1, 1), bias=False)
      )
    )
  )
  (transition3): Sequential(
    (0): BatchNorm2d(342, eps=1e-05, momentum=0.1, affine=True, track_running_stats=True)
    (1): ReLU(inplace=True)
    (2): AvgPool2d(kernel_size=8, stride=1, padding=0)
  )
  (fc): Linear(in_features=342, out_features=100, bias=True)
)
[2019-08-26 18:11:31,011] - [train.py line:124] : =====total parameters:800032
[2019-08-26 18:11:34,973] - [train.py line:151] : ==============trian-test-file-pathLcifar100
[2019-08-26 18:11:34,973] - [train.py line:152] :             =======  Training  =======

[2019-08-26 18:11:34,974] - [train.py line:36] : ====Epoch:[1/300]====
[2019-08-26 18:11:57,861] - [train.py line:61] :    == step: [100/391], train loss: 4.195 | train acc:  5.969% | lr: 0.100000
…
