…
[2019-08-24 11:17:10,248] - [train.py line:120] : {'architecture': 'preresneXt74', 'data_path': './data', 'ckpt_path': './', 'ckpt_name': 'preresneXt74', 'num_classes': 100, 'dataset': 'cifar100', 'use_gpu': True, 'input_size': 32, 'epochs': 250, 'batch_size': 128, 'test_batch': 200, 'eval_freq': 2, 'workers': 4, 'optimize': {'momentum': 0.9, 'weight_decay': 0.001, 'nesterov': True}, 'mixup': False, 'mixup_alpha': 0.4, 'augmentation': {'normalize': True, 'random_crop': True, 'random_horizontal_filp': True, 'cutout': False, 'holes': 1, 'length': 8}, 'lr_scheduler': {'type': 'STEP', 'base_lr': 0.1, 'lr_epochs': [100, 150, 200], 'lr_mults': 0.1, 'min_lr': 0.0, 'lower_bound': -6.0, 'upper_bound': 3.0}}
[2019-08-24 11:17:10,321] - [train.py line:123] : PreResnet(
  (conv_1): Conv2d(3, 64, kernel_size=(3, 3), stride=(1, 1), padding=(1, 1), bias=False)
  (layer1): Sequential(
    (0): BottleNeck(
      (bn_1): BatchNorm2d(64, eps=1e-05, momentum=0.1, affine=True, track_running_stats=True)
      (conv_1): Conv2d(64, 128, kernel_size=(1, 1), stride=(1, 1), bias=False)
      (bn_2): BatchNorm2d(128, eps=1e-05, momentum=0.1, affine=True, track_running_stats=True)
      (conv_2): Conv2d(128, 128, kernel_size=(3, 3), stride=(1, 1), padding=(1, 1), groups=32, bias=False)
      (bn_3): BatchNorm2d(128, eps=1e-05, momentum=0.1, affine=True, track_running_stats=True)
      (conv_3): Conv2d(128, 64, kernel_size=(1, 1), stride=(1, 1), bias=False)
      (relu): ReLU(inplace=True)
    )
    (1): BottleNeck(
      (bn_1): BatchNorm2d(64, eps=1e-05, momentum=0.1, affine=True, track_running_stats=True)
      (conv_1): Conv2d(64, 128, kernel_size=(1, 1), stride=(1, 1), bias=False)
      (bn_2): BatchNorm2d(128, eps=1e-05, momentum=0.1, affine=True, track_running_stats=True)
      (conv_2): Conv2d(128, 128, kernel_size=(3, 3), stride=(1, 1), padding=(1, 1), groups=32, bias=False)
      (bn_3): BatchNorm2d(128, eps=1e-05, momentum=0.1, affine=True, track_running_stats=True)
      (conv_3): Conv2d(128, 64, kernel_size=(1, 1), stride=(1, 1), bias=False)
      (relu): ReLU(inplace=True)
    )
    (2): BottleNeck(
      (bn_1): BatchNorm2d(64, eps=1e-05, momentum=0.1, affine=True, track_running_stats=True)
      (conv_1): Conv2d(64, 128, kernel_size=(1, 1), stride=(1, 1), bias=False)
      (bn_2): BatchNorm2d(128, eps=1e-05, momentum=0.1, affine=True, track_running_stats=True)
      (conv_2): Conv2d(128, 128, kernel_size=(3, 3), stride=(1, 1), padding=(1, 1), groups=32, bias=False)
      (bn_3): BatchNorm2d(128, eps=1e-05, momentum=0.1, affine=True, track_running_stats=True)
      (conv_3): Conv2d(128, 64, kernel_size=(1, 1), stride=(1, 1), bias=False)
      (relu): ReLU(inplace=True)
    )
    (3): BottleNeck(
      (bn_1): BatchNorm2d(64, eps=1e-05, momentum=0.1, affine=True, track_running_stats=True)
      (conv_1): Conv2d(64, 128, kernel_size=(1, 1), stride=(1, 1), bias=False)
      (bn_2): BatchNorm2d(128, eps=1e-05, momentum=0.1, affine=True, track_running_stats=True)
      (conv_2): Conv2d(128, 128, kernel_size=(3, 3), stride=(1, 1), padding=(1, 1), groups=32, bias=False)
      (bn_3): BatchNorm2d(128, eps=1e-05, momentum=0.1, affine=True, track_running_stats=True)
      (conv_3): Conv2d(128, 64, kernel_size=(1, 1), stride=(1, 1), bias=False)
      (relu): ReLU(inplace=True)
    )
    (4): BottleNeck(
      (bn_1): BatchNorm2d(64, eps=1e-05, momentum=0.1, affine=True, track_running_stats=True)
      (conv_1): Conv2d(64, 128, kernel_size=(1, 1), stride=(1, 1), bias=False)
      (bn_2): BatchNorm2d(128, eps=1e-05, momentum=0.1, affine=True, track_running_stats=True)
      (conv_2): Conv2d(128, 128, kernel_size=(3, 3), stride=(1, 1), padding=(1, 1), groups=32, bias=False)
      (bn_3): BatchNorm2d(128, eps=1e-05, momentum=0.1, affine=True, track_running_stats=True)
      (conv_3): Conv2d(128, 64, kernel_size=(1, 1), stride=(1, 1), bias=False)
      (relu): ReLU(inplace=True)
    )
    (5): BottleNeck(
      (bn_1): BatchNorm2d(64, eps=1e-05, momentum=0.1, affine=True, track_running_stats=True)
      (conv_1): Conv2d(64, 128, kernel_size=(1, 1), stride=(1, 1), bias=False)
      (bn_2): BatchNorm2d(128, eps=1e-05, momentum=0.1, affine=True, track_running_stats=True)
      (conv_2): Conv2d(128, 128, kernel_size=(3, 3), stride=(1, 1), padding=(1, 1), groups=32, bias=False)
      (bn_3): BatchNorm2d(128, eps=1e-05, momentum=0.1, affine=True, track_running_stats=True)
      (conv_3): Conv2d(128, 64, kernel_size=(1, 1), stride=(1, 1), bias=False)
      (relu): ReLU(inplace=True)
    )
  )
  (layer2): Sequential(
    (0): BottleNeck(
      (bn_1): BatchNorm2d(64, eps=1e-05, momentum=0.1, affine=True, track_running_stats=True)
      (conv_1): Conv2d(64, 256, kernel_size=(1, 1), stride=(1, 1), bias=False)
      (bn_2): BatchNorm2d(256, eps=1e-05, momentum=0.1, affine=True, track_running_stats=True)
      (conv_2): Conv2d(256, 256, kernel_size=(3, 3), stride=(2, 2), padding=(1, 1), groups=32, bias=False)
      (bn_3): BatchNorm2d(256, eps=1e-05, momentum=0.1, affine=True, track_running_stats=True)
      (conv_3): Conv2d(256, 128, kernel_size=(1, 1), stride=(1, 1), bias=False)
      (relu): ReLU(inplace=True)
      (downsample): Sequential(
        (0): Conv2d(64, 128, kernel_size=(1, 1), stride=(2, 2), bias=False)
      )
    )
    (1): BottleNeck(
      (bn_1): BatchNorm2d(128, eps=1e-05, momentum=0.1, affine=True, track_running_stats=True)
      (conv_1): Conv2d(128, 256, kernel_size=(1, 1), stride=(1, 1), bias=False)
      (bn_2): BatchNorm2d(256, eps=1e-05, momentum=0.1, affine=True, track_running_stats=True)
      (conv_2): Conv2d(256, 256, kernel_size=(3, 3), stride=(1, 1), padding=(1, 1), groups=32, bias=False)
      (bn_3): BatchNorm2d(256, eps=1e-05, momentum=0.1, affine=True, track_running_stats=True)
      (conv_3): Conv2d(256, 128, kernel_size=(1, 1), stride=(1, 1), bias=False)
      (relu): ReLU(inplace=True)
    )
    (2): BottleNeck(
      (bn_1): BatchNorm2d(128, eps=1e-05, momentum=0.1, affine=True, track_running_stats=True)
      (conv_1): Conv2d(128, 256, kernel_size=(1, 1), stride=(1, 1), bias=False)
      (bn_2): BatchNorm2d(256, eps=1e-05, momentum=0.1, affine=True, track_running_stats=True)
      (conv_2): Conv2d(256, 256, kernel_size=(3, 3), stride=(1, 1), padding=(1, 1), groups=32, bias=False)
      (bn_3): BatchNorm2d(256, eps=1e-05, momentum=0.1, affine=True, track_running_stats=True)
      (conv_3): Conv2d(256, 128, kernel_size=(1, 1), stride=(1, 1), bias=False)
      (relu): ReLU(inplace=True)
    )
    (3): BottleNeck(
      (bn_1): BatchNorm2d(128, eps=1e-05, momentum=0.1, affine=True, track_running_stats=True)
      (conv_1): Conv2d(128, 256, kernel_size=(1, 1), stride=(1, 1), bias=False)
      (bn_2): BatchNorm2d(256, eps=1e-05, momentum=0.1, affine=True, track_running_stats=True)
      (conv_2): Conv2d(256, 256, kernel_size=(3, 3), stride=(1, 1), padding=(1, 1), groups=32, bias=False)
      (bn_3): BatchNorm2d(256, eps=1e-05, momentum=0.1, affine=True, track_running_stats=True)
      (conv_3): Conv2d(256, 128, kernel_size=(1, 1), stride=(1, 1), bias=False)
      (relu): ReLU(inplace=True)
    )
    (4): BottleNeck(
      (bn_1): BatchNorm2d(128, eps=1e-05, momentum=0.1, affine=True, track_running_stats=True)
      (conv_1): Conv2d(128, 256, kernel_size=(1, 1), stride=(1, 1), bias=False)
      (bn_2): BatchNorm2d(256, eps=1e-05, momentum=0.1, affine=True, track_running_stats=True)
      (conv_2): Conv2d(256, 256, kernel_size=(3, 3), stride=(1, 1), padding=(1, 1), groups=32, bias=False)
      (bn_3): BatchNorm2d(256, eps=1e-05, momentum=0.1, affine=True, track_running_stats=True)
      (conv_3): Conv2d(256, 128, kernel_size=(1, 1), stride=(1, 1), bias=False)
      (relu): ReLU(inplace=True)
    )
    (5): BottleNeck(
      (bn_1): BatchNorm2d(128, eps=1e-05, momentum=0.1, affine=True, track_running_stats=True)
      (conv_1): Conv2d(128, 256, kernel_size=(1, 1), stride=(1, 1), bias=False)
      (bn_2): BatchNorm2d(256, eps=1e-05, momentum=0.1, affine=True, track_running_stats=True)
      (conv_2): Conv2d(256, 256, kernel_size=(3, 3), stride=(1, 1), padding=(1, 1), groups=32, bias=False)
      (bn_3): BatchNorm2d(256, eps=1e-05, momentum=0.1, affine=True, track_running_stats=True)
      (conv_3): Conv2d(256, 128, kernel_size=(1, 1), stride=(1, 1), bias=False)
      (relu): ReLU(inplace=True)
    )
  )
  (layer3): Sequential(
    (0): BottleNeck(
      (bn_1): BatchNorm2d(128, eps=1e-05, momentum=0.1, affine=True, track_running_stats=True)
      (conv_1): Conv2d(128, 512, kernel_size=(1, 1), stride=(1, 1), bias=False)
      (bn_2): BatchNorm2d(512, eps=1e-05, momentum=0.1, affine=True, track_running_stats=True)
      (conv_2): Conv2d(512, 512, kernel_size=(3, 3), stride=(2, 2), padding=(1, 1), groups=32, bias=False)
      (bn_3): BatchNorm2d(512, eps=1e-05, momentum=0.1, affine=True, track_running_stats=True)
      (conv_3): Conv2d(512, 256, kernel_size=(1, 1), stride=(1, 1), bias=False)
      (relu): ReLU(inplace=True)
      (downsample): Sequential(
        (0): Conv2d(128, 256, kernel_size=(1, 1), stride=(2, 2), bias=False)
      )
    )
    (1): BottleNeck(
      (bn_1): BatchNorm2d(256, eps=1e-05, momentum=0.1, affine=True, track_running_stats=True)
      (conv_1): Conv2d(256, 512, kernel_size=(1, 1), stride=(1, 1), bias=False)
      (bn_2): BatchNorm2d(512, eps=1e-05, momentum=0.1, affine=True, track_running_stats=True)
      (conv_2): Conv2d(512, 512, kernel_size=(3, 3), stride=(1, 1), padding=(1, 1), groups=32, bias=False)
      (bn_3): BatchNorm2d(512, eps=1e-05, momentum=0.1, affine=True, track_running_stats=True)
      (conv_3): Conv2d(512, 256, kernel_size=(1, 1), stride=(1, 1), bias=False)
      (relu): ReLU(inplace=True)
    )
    (2): BottleNeck(
      (bn_1): BatchNorm2d(256, eps=1e-05, momentum=0.1, affine=True, track_running_stats=True)
      (conv_1): Conv2d(256, 512, kernel_size=(1, 1), stride=(1, 1), bias=False)
      (bn_2): BatchNorm2d(512, eps=1e-05, momentum=0.1, affine=True, track_running_stats=True)
      (conv_2): Conv2d(512, 512, kernel_size=(3, 3), stride=(1, 1), padding=(1, 1), groups=32, bias=False)
      (bn_3): BatchNorm2d(512, eps=1e-05, momentum=0.1, affine=True, track_running_stats=True)
      (conv_3): Conv2d(512, 256, kernel_size=(1, 1), stride=(1, 1), bias=False)
      (relu): ReLU(inplace=True)
    )
    (3): BottleNeck(
      (bn_1): BatchNorm2d(256, eps=1e-05, momentum=0.1, affine=True, track_running_stats=True)
      (conv_1): Conv2d(256, 512, kernel_size=(1, 1), stride=(1, 1), bias=False)
      (bn_2): BatchNorm2d(512, eps=1e-05, momentum=0.1, affine=True, track_running_stats=True)
      (conv_2): Conv2d(512, 512, kernel_size=(3, 3), stride=(1, 1), padding=(1, 1), groups=32, bias=False)
      (bn_3): BatchNorm2d(512, eps=1e-05, momentum=0.1, affine=True, track_running_stats=True)
      (conv_3): Conv2d(512, 256, kernel_size=(1, 1), stride=(1, 1), bias=False)
      (relu): ReLU(inplace=True)
    )
    (4): BottleNeck(
      (bn_1): BatchNorm2d(256, eps=1e-05, momentum=0.1, affine=True, track_running_stats=True)
      (conv_1): Conv2d(256, 512, kernel_size=(1, 1), stride=(1, 1), bias=False)
      (bn_2): BatchNorm2d(512, eps=1e-05, momentum=0.1, affine=True, track_running_stats=True)
      (conv_2): Conv2d(512, 512, kernel_size=(3, 3), stride=(1, 1), padding=(1, 1), groups=32, bias=False)
      (bn_3): BatchNorm2d(512, eps=1e-05, momentum=0.1, affine=True, track_running_stats=True)
      (conv_3): Conv2d(512, 256, kernel_size=(1, 1), stride=(1, 1), bias=False)
      (relu): ReLU(inplace=True)
    )
    (5): BottleNeck(
      (bn_1): BatchNorm2d(256, eps=1e-05, momentum=0.1, affine=True, track_running_stats=True)
      (conv_1): Conv2d(256, 512, kernel_size=(1, 1), stride=(1, 1), bias=False)
      (bn_2): BatchNorm2d(512, eps=1e-05, momentum=0.1, affine=True, track_running_stats=True)
      (conv_2): Conv2d(512, 512, kernel_size=(3, 3), stride=(1, 1), padding=(1, 1), groups=32, bias=False)
      (bn_3): BatchNorm2d(512, eps=1e-05, momentum=0.1, affine=True, track_running_stats=True)
      (conv_3): Conv2d(512, 256, kernel_size=(1, 1), stride=(1, 1), bias=False)
      (relu): ReLU(inplace=True)
    )
  )
  (layer4): Sequential(
    (0): BottleNeck(
      (bn_1): BatchNorm2d(256, eps=1e-05, momentum=0.1, affine=True, track_running_stats=True)
      (conv_1): Conv2d(256, 1024, kernel_size=(1, 1), stride=(1, 1), bias=False)
      (bn_2): BatchNorm2d(1024, eps=1e-05, momentum=0.1, affine=True, track_running_stats=True)
      (conv_2): Conv2d(1024, 1024, kernel_size=(3, 3), stride=(2, 2), padding=(1, 1), groups=32, bias=False)
      (bn_3): BatchNorm2d(1024, eps=1e-05, momentum=0.1, affine=True, track_running_stats=True)
      (conv_3): Conv2d(1024, 512, kernel_size=(1, 1), stride=(1, 1), bias=False)
      (relu): ReLU(inplace=True)
      (downsample): Sequential(
        (0): Conv2d(256, 512, kernel_size=(1, 1), stride=(2, 2), bias=False)
      )
    )
    (1): BottleNeck(
      (bn_1): BatchNorm2d(512, eps=1e-05, momentum=0.1, affine=True, track_running_stats=True)
      (conv_1): Conv2d(512, 1024, kernel_size=(1, 1), stride=(1, 1), bias=False)
      (bn_2): BatchNorm2d(1024, eps=1e-05, momentum=0.1, affine=True, track_running_stats=True)
      (conv_2): Conv2d(1024, 1024, kernel_size=(3, 3), stride=(1, 1), padding=(1, 1), groups=32, bias=False)
      (bn_3): BatchNorm2d(1024, eps=1e-05, momentum=0.1, affine=True, track_running_stats=True)
      (conv_3): Conv2d(1024, 512, kernel_size=(1, 1), stride=(1, 1), bias=False)
      (relu): ReLU(inplace=True)
    )
    (2): BottleNeck(
      (bn_1): BatchNorm2d(512, eps=1e-05, momentum=0.1, affine=True, track_running_stats=True)
      (conv_1): Conv2d(512, 1024, kernel_size=(1, 1), stride=(1, 1), bias=False)
      (bn_2): BatchNorm2d(1024, eps=1e-05, momentum=0.1, affine=True, track_running_stats=True)
      (conv_2): Conv2d(1024, 1024, kernel_size=(3, 3), stride=(1, 1), padding=(1, 1), groups=32, bias=False)
      (bn_3): BatchNorm2d(1024, eps=1e-05, momentum=0.1, affine=True, track_running_stats=True)
      (conv_3): Conv2d(1024, 512, kernel_size=(1, 1), stride=(1, 1), bias=False)
      (relu): ReLU(inplace=True)
    )
    (3): BottleNeck(
      (bn_1): BatchNorm2d(512, eps=1e-05, momentum=0.1, affine=True, track_running_stats=True)
      (conv_1): Conv2d(512, 1024, kernel_size=(1, 1), stride=(1, 1), bias=False)
      (bn_2): BatchNorm2d(1024, eps=1e-05, momentum=0.1, affine=True, track_running_stats=True)
      (conv_2): Conv2d(1024, 1024, kernel_size=(3, 3), stride=(1, 1), padding=(1, 1), groups=32, bias=False)
      (bn_3): BatchNorm2d(1024, eps=1e-05, momentum=0.1, affine=True, track_running_stats=True)
      (conv_3): Conv2d(1024, 512, kernel_size=(1, 1), stride=(1, 1), bias=False)
      (relu): ReLU(inplace=True)
    )
    (4): BottleNeck(
      (bn_1): BatchNorm2d(512, eps=1e-05, momentum=0.1, affine=True, track_running_stats=True)
      (conv_1): Conv2d(512, 1024, kernel_size=(1, 1), stride=(1, 1), bias=False)
      (bn_2): BatchNorm2d(1024, eps=1e-05, momentum=0.1, affine=True, track_running_stats=True)
      (conv_2): Conv2d(1024, 1024, kernel_size=(3, 3), stride=(1, 1), padding=(1, 1), groups=32, bias=False)
      (bn_3): BatchNorm2d(1024, eps=1e-05, momentum=0.1, affine=True, track_running_stats=True)
      (conv_3): Conv2d(1024, 512, kernel_size=(1, 1), stride=(1, 1), bias=False)
      (relu): ReLU(inplace=True)
    )
    (5): BottleNeck(
      (bn_1): BatchNorm2d(512, eps=1e-05, momentum=0.1, affine=True, track_running_stats=True)
      (conv_1): Conv2d(512, 1024, kernel_size=(1, 1), stride=(1, 1), bias=False)
      (bn_2): BatchNorm2d(1024, eps=1e-05, momentum=0.1, affine=True, track_running_stats=True)
      (conv_2): Conv2d(1024, 1024, kernel_size=(3, 3), stride=(1, 1), padding=(1, 1), groups=32, bias=False)
      (bn_3): BatchNorm2d(1024, eps=1e-05, momentum=0.1, affine=True, track_running_stats=True)
      (conv_3): Conv2d(1024, 512, kernel_size=(1, 1), stride=(1, 1), bias=False)
      (relu): ReLU(inplace=True)
    )
  )
  (bn): BatchNorm2d(512, eps=1e-05, momentum=0.1, affine=True, track_running_stats=True)
  (relu): ReLU(inplace=True)
  (avgpool): AvgPool2d(kernel_size=2, stride=2, padding=0)
  (fc): Linear(in_features=2048, out_features=100, bias=True)
)
[2019-08-24 11:17:10,324] - [train.py line:124] : =====total parameters:10798244
[2019-08-24 11:17:15,539] - [train.py line:151] : ==============trian-test-file-pathLcifar100
[2019-08-24 11:17:15,539] - [train.py line:152] :             =======  Training  =======

[2019-08-24 11:17:15,540] - [train.py line:36] : ====Epoch:[1/250]====
[2019-08-24 11:17:43,613] - [train.py line:61] :    == step: [100/391], train loss: 4.263 | train acc:  6.555% | lr: 0.100000
…
