…
[2019-08-22 12:58:17,420] - [train.py line:120] : {'architecture': 'preresnet20', 'data_path': './data', 'ckpt_path': './', 'ckpt_name': 'preresnet20', 'num_classes': 100, 'dataset': 'cifar100', 'use_gpu': True, 'input_size': 32, 'epochs': 250, 'batch_size': 128, 'test_batch': 200, 'eval_freq': 2, 'workers': 4, 'optimize': {'momentum': 0.9, 'weight_decay': 0.001, 'nesterov': True}, 'mixup': False, 'mixup_alpha': 0.4, 'augmentation': {'normalize': True, 'random_crop': True, 'random_horizontal_filp': True, 'cutout': False, 'holes': 1, 'length': 8}, 'lr_scheduler': {'type': 'STEP', 'base_lr': 0.1, 'lr_epochs': [100, 150, 200], 'lr_mults': 0.1, 'min_lr': 0.0, 'lower_bound': -6.0, 'upper_bound': 3.0}}
[2019-08-22 12:58:17,425] - [train.py line:123] : PreResnet(
  (conv_1): Conv2d(3, 16, kernel_size=(3, 3), stride=(1, 1), padding=(1, 1), bias=False)
  (layer1): Sequential(
    (0): BottleNeck(
      (bn_1): BatchNorm2d(16, eps=1e-05, momentum=0.1, affine=True, track_running_stats=True)
      (conv_1): Conv2d(16, 4, kernel_size=(1, 1), stride=(1, 1), bias=False)
      (bn_2): BatchNorm2d(16, eps=1e-05, momentum=0.1, affine=True, track_running_stats=True)
      (conv_2): Conv2d(4, 4, kernel_size=(3, 3), stride=(1, 1), padding=(1, 1), bias=False)
      (bn_3): BatchNorm2d(16, eps=1e-05, momentum=0.1, affine=True, track_running_stats=True)
      (conv_3): Conv2d(4, 16, kernel_size=(1, 1), stride=(1, 1), bias=False)
      (relu): ReLU(inplace=True)
    )
    (1): BottleNeck(
      (bn_1): BatchNorm2d(16, eps=1e-05, momentum=0.1, affine=True, track_running_stats=True)
      (conv_1): Conv2d(16, 4, kernel_size=(1, 1), stride=(1, 1), bias=False)
      (bn_2): BatchNorm2d(16, eps=1e-05, momentum=0.1, affine=True, track_running_stats=True)
      (conv_2): Conv2d(4, 4, kernel_size=(3, 3), stride=(1, 1), padding=(1, 1), bias=False)
      (bn_3): BatchNorm2d(16, eps=1e-05, momentum=0.1, affine=True, track_running_stats=True)
      (conv_3): Conv2d(4, 16, kernel_size=(1, 1), stride=(1, 1), bias=False)
      (relu): ReLU(inplace=True)
    )
  )
  (layer2): Sequential(
    (0): BottleNeck(
      (bn_1): BatchNorm2d(16, eps=1e-05, momentum=0.1, affine=True, track_running_stats=True)
      (conv_1): Conv2d(16, 4, kernel_size=(1, 1), stride=(1, 1), bias=False)
      (bn_2): BatchNorm2d(32, eps=1e-05, momentum=0.1, affine=True, track_running_stats=True)
      (conv_2): Conv2d(4, 4, kernel_size=(3, 3), stride=(2, 2), padding=(1, 1), bias=False)
      (bn_3): BatchNorm2d(32, eps=1e-05, momentum=0.1, affine=True, track_running_stats=True)
      (conv_3): Conv2d(4, 32, kernel_size=(1, 1), stride=(1, 1), bias=False)
      (relu): ReLU(inplace=True)
      (downsample): Sequential(
        (0): Conv2d(16, 32, kernel_size=(1, 1), stride=(2, 2), bias=False)
      )
    )
    (1): BottleNeck(
      (bn_1): BatchNorm2d(32, eps=1e-05, momentum=0.1, affine=True, track_running_stats=True)
      (conv_1): Conv2d(32, 8, kernel_size=(1, 1), stride=(1, 1), bias=False)
      (bn_2): BatchNorm2d(32, eps=1e-05, momentum=0.1, affine=True, track_running_stats=True)
      (conv_2): Conv2d(8, 8, kernel_size=(3, 3), stride=(1, 1), padding=(1, 1), bias=False)
      (bn_3): BatchNorm2d(32, eps=1e-05, momentum=0.1, affine=True, track_running_stats=True)
      (conv_3): Conv2d(8, 32, kernel_size=(1, 1), stride=(1, 1), bias=False)
      (relu): ReLU(inplace=True)
    )
  )
  (layer3): Sequential(
    (0): BottleNeck(
      (bn_1): BatchNorm2d(32, eps=1e-05, momentum=0.1, affine=True, track_running_stats=True)
      (conv_1): Conv2d(32, 8, kernel_size=(1, 1), stride=(1, 1), bias=False)
      (bn_2): BatchNorm2d(64, eps=1e-05, momentum=0.1, affine=True, track_running_stats=True)
      (conv_2): Conv2d(8, 8, kernel_size=(3, 3), stride=(2, 2), padding=(1, 1), bias=False)
      (bn_3): BatchNorm2d(64, eps=1e-05, momentum=0.1, affine=True, track_running_stats=True)
      (conv_3): Conv2d(8, 64, kernel_size=(1, 1), stride=(1, 1), bias=False)
      (relu): ReLU(inplace=True)
      (downsample): Sequential(
        (0): Conv2d(32, 64, kernel_size=(1, 1), stride=(2, 2), bias=False)
      )
    )
    (1): BottleNeck(
      (bn_1): BatchNorm2d(64, eps=1e-05, momentum=0.1, affine=True, track_running_stats=True)
      (conv_1): Conv2d(64, 16, kernel_size=(1, 1), stride=(1, 1), bias=False)
      (bn_2): BatchNorm2d(64, eps=1e-05, momentum=0.1, affine=True, track_running_stats=True)
      (conv_2): Conv2d(16, 16, kernel_size=(3, 3), stride=(1, 1), padding=(1, 1), bias=False)
      (bn_3): BatchNorm2d(64, eps=1e-05, momentum=0.1, affine=True, track_running_stats=True)
      (conv_3): Conv2d(16, 64, kernel_size=(1, 1), stride=(1, 1), bias=False)
      (relu): ReLU(inplace=True)
    )
  )
  (bn): BatchNorm2d(64, eps=1e-05, momentum=0.1, affine=True, track_running_stats=True)
  (relu): ReLU(inplace=True)
  (avgpool): AvgPool2d(kernel_size=2, stride=2, padding=0)
  (fc): Linear(in_features=1024, out_features=100, bias=True)
)
[2019-08-22 12:58:17,426] - [train.py line:124] : =====total parameters:114532
[2019-08-22 12:58:21,388] - [train.py line:151] : ==============trian-test-file-pathLcifar100
[2019-08-22 12:58:21,388] - [train.py line:152] :             =======  Training  =======

[2019-08-22 12:58:21,388] - [train.py line:36] : ====Epoch:[1/250]====
[2019-08-22 12:59:20,472] - [train.py line:120] : {'architecture': 'preresnet20', 'data_path': './data', 'ckpt_path': './', 'ckpt_name': 'preresnet20', 'num_classes': 100, 'dataset': 'cifar100', 'use_gpu': True, 'input_size': 32, 'epochs': 250, 'batch_size': 128, 'test_batch': 200, 'eval_freq': 2, 'workers': 4, 'optimize': {'momentum': 0.9, 'weight_decay': 0.001, 'nesterov': True}, 'mixup': False, 'mixup_alpha': 0.4, 'augmentation': {'normalize': True, 'random_crop': True, 'random_horizontal_filp': True, 'cutout': False, 'holes': 1, 'length': 8}, 'lr_scheduler': {'type': 'STEP', 'base_lr': 0.1, 'lr_epochs': [100, 150, 200], 'lr_mults': 0.1, 'min_lr': 0.0, 'lower_bound': -6.0, 'upper_bound': 3.0}}
[2019-08-22 12:59:20,477] - [train.py line:123] : PreResnet(
  (conv_1): Conv2d(3, 16, kernel_size=(3, 3), stride=(1, 1), padding=(1, 1), bias=False)
  (layer1): Sequential(
    (0): BottleNeck(
      (bn_1): BatchNorm2d(16, eps=1e-05, momentum=0.1, affine=True, track_running_stats=True)
      (conv_1): Conv2d(16, 4, kernel_size=(1, 1), stride=(1, 1), bias=False)
      (bn_2): BatchNorm2d(4, eps=1e-05, momentum=0.1, affine=True, track_running_stats=True)
      (conv_2): Conv2d(4, 4, kernel_size=(3, 3), stride=(1, 1), padding=(1, 1), bias=False)
      (bn_3): BatchNorm2d(4, eps=1e-05, momentum=0.1, affine=True, track_running_stats=True)
      (conv_3): Conv2d(4, 16, kernel_size=(1, 1), stride=(1, 1), bias=False)
      (relu): ReLU(inplace=True)
    )
    (1): BottleNeck(
      (bn_1): BatchNorm2d(16, eps=1e-05, momentum=0.1, affine=True, track_running_stats=True)
      (conv_1): Conv2d(16, 4, kernel_size=(1, 1), stride=(1, 1), bias=False)
      (bn_2): BatchNorm2d(4, eps=1e-05, momentum=0.1, affine=True, track_running_stats=True)
      (conv_2): Conv2d(4, 4, kernel_size=(3, 3), stride=(1, 1), padding=(1, 1), bias=False)
      (bn_3): BatchNorm2d(4, eps=1e-05, momentum=0.1, affine=True, track_running_stats=True)
      (conv_3): Conv2d(4, 16, kernel_size=(1, 1), stride=(1, 1), bias=False)
      (relu): ReLU(inplace=True)
    )
  )
  (layer2): Sequential(
    (0): BottleNeck(
      (bn_1): BatchNorm2d(16, eps=1e-05, momentum=0.1, affine=True, track_running_stats=True)
      (conv_1): Conv2d(16, 4, kernel_size=(1, 1), stride=(1, 1), bias=False)
      (bn_2): BatchNorm2d(4, eps=1e-05, momentum=0.1, affine=True, track_running_stats=True)
      (conv_2): Conv2d(4, 4, kernel_size=(3, 3), stride=(2, 2), padding=(1, 1), bias=False)
      (bn_3): BatchNorm2d(4, eps=1e-05, momentum=0.1, affine=True, track_running_stats=True)
      (conv_3): Conv2d(4, 32, kernel_size=(1, 1), stride=(1, 1), bias=False)
      (relu): ReLU(inplace=True)
      (downsample): Sequential(
        (0): Conv2d(16, 32, kernel_size=(1, 1), stride=(2, 2), bias=False)
      )
    )
    (1): BottleNeck(
      (bn_1): BatchNorm2d(32, eps=1e-05, momentum=0.1, affine=True, track_running_stats=True)
      (conv_1): Conv2d(32, 8, kernel_size=(1, 1), stride=(1, 1), bias=False)
      (bn_2): BatchNorm2d(8, eps=1e-05, momentum=0.1, affine=True, track_running_stats=True)
      (conv_2): Conv2d(8, 8, kernel_size=(3, 3), stride=(1, 1), padding=(1, 1), bias=False)
      (bn_3): BatchNorm2d(8, eps=1e-05, momentum=0.1, affine=True, track_running_stats=True)
      (conv_3): Conv2d(8, 32, kernel_size=(1, 1), stride=(1, 1), bias=False)
      (relu): ReLU(inplace=True)
    )
  )
  (layer3): Sequential(
    (0): BottleNeck(
      (bn_1): BatchNorm2d(32, eps=1e-05, momentum=0.1, affine=True, track_running_stats=True)
      (conv_1): Conv2d(32, 8, kernel_size=(1, 1), stride=(1, 1), bias=False)
      (bn_2): BatchNorm2d(8, eps=1e-05, momentum=0.1, affine=True, track_running_stats=True)
      (conv_2): Conv2d(8, 8, kernel_size=(3, 3), stride=(2, 2), padding=(1, 1), bias=False)
      (bn_3): BatchNorm2d(8, eps=1e-05, momentum=0.1, affine=True, track_running_stats=True)
      (conv_3): Conv2d(8, 64, kernel_size=(1, 1), stride=(1, 1), bias=False)
      (relu): ReLU(inplace=True)
      (downsample): Sequential(
        (0): Conv2d(32, 64, kernel_size=(1, 1), stride=(2, 2), bias=False)
      )
    )
    (1): BottleNeck(
      (bn_1): BatchNorm2d(64, eps=1e-05, momentum=0.1, affine=True, track_running_stats=True)
      (conv_1): Conv2d(64, 16, kernel_size=(1, 1), stride=(1, 1), bias=False)
      (bn_2): BatchNorm2d(16, eps=1e-05, momentum=0.1, affine=True, track_running_stats=True)
      (conv_2): Conv2d(16, 16, kernel_size=(3, 3), stride=(1, 1), padding=(1, 1), bias=False)
      (bn_3): BatchNorm2d(16, eps=1e-05, momentum=0.1, affine=True, track_running_stats=True)
      (conv_3): Conv2d(16, 64, kernel_size=(1, 1), stride=(1, 1), bias=False)
      (relu): ReLU(inplace=True)
    )
  )
  (bn): BatchNorm2d(64, eps=1e-05, momentum=0.1, affine=True, track_running_stats=True)
  (relu): ReLU(inplace=True)
  (avgpool): AvgPool2d(kernel_size=2, stride=2, padding=0)
  (fc): Linear(in_features=1024, out_features=100, bias=True)
)
[2019-08-22 12:59:20,478] - [train.py line:124] : =====total parameters:113812
[2019-08-22 12:59:24,437] - [train.py line:151] : ==============trian-test-file-pathLcifar100
[2019-08-22 12:59:24,438] - [train.py line:152] :             =======  Training  =======

[2019-08-22 12:59:24,438] - [train.py line:36] : ====Epoch:[1/250]====
[2019-08-22 12:59:26,108] - [train.py line:61] :    == step: [100/391], train loss: 4.112 | train acc:  8.305% | lr: 0.100000
…
