…
'dataset': 'cifar10', 'use_gpu': True, 'input_size': 32, 'epochs': 250, 'batch_size': 128, 'test_batch': 200, 'eval_freq': 2, 'workers': 4, 'optimize': {'momentum': 0.9, 'weight_decay': 0.0001, 'nesterov': True}, 'mixup': False, 'mixup_alpha': 0.4, 'augmentation': {'normalize': True, 'random_crop': True, 'random_horizontal_filp': True, 'cutout': False, 'holes': 1, 'length': 8}, 'lr_scheduler': {'type': 'STEP', 'base_lr': 0.1, 'lr_epochs': [100, 150, 200], 'lr_mults': 0.1, 'min_lr': 0.0, 'lower_bound': -6.0, 'upper_bound': 3.0}}
[2019-08-17 13:19:17,784] - [train.py line:123] : LeNet(
  (conv_1): Conv2d(3, 6, kernel_size=(5, 5), stride=(1, 1))
  (conv_2): Conv2d(6, 16, kernel_size=(5, 5), stride=(1, 1))
  (fc_1): Linear(in_features=400, out_features=120, bias=True)
  (fc_2): Linear(in_features=120, out_features=84, bias=True)
  (fc_3): Linear(in_features=84, out_features=10, bias=True)
)
[2019-08-17 13:19:17,784] - [train.py line:124] : =====total parameters:62006
[2019-08-17 13:21:57,971] - [train.py line:120] : {'architecture': 'lenet', 'data_path': './data', 'ckpt_path': './', 'ckpt_name': 'lenet', 'num_classes': 10, 'dataset': 'cifar10', 'use_gpu': True, 'input_size': 32, 'epochs': 250, 'batch_size': 128, 'test_batch': 200, 'eval_freq': 2, 'workers': 4, 'optimize': {'momentum': 0.9, 'weight_decay': 0.0001, 'nesterov': True}, 'mixup': False, 'mixup_alpha': 0.4, 'augmentation': {'normalize': True, 'random_crop': True, 'random_horizontal_filp': True, 'cutout': False, 'holes': 1, 'length': 8}, 'lr_scheduler': {'type': 'STEP', 'base_lr': 0.1, 'lr_epochs': [100, 150, 200], 'lr_mults': 0.1, 'min_lr': 0.0, 'lower_bound': -6.0, 'upper_bound': 3.0}}
[2019-08-17 13:21:57,973] - [train.py line:123] : LeNet(
  (conv_1): Conv2d(3, 6, kernel_size=(5, 5), stride=(1, 1))
  (conv_2): Conv2d(6, 16, kernel_size=(5, 5), stride=(1, 1))
  (fc_1): Linear(in_features=400, out_features=120, bias=True)
  (fc_2): Linear(in_features=120, out_features=84, bias=True)
  (fc_3): Linear(in_features=84, out_features=10, bias=True)
)
[2019-08-17 13:21:57,973] - [train.py line:124] : =====total parameters:62006
[2019-08-17 13:24:49,614] - [train.py line:120] : {'architecture': 'lenet', 'data_path': './data', 'ckpt_path': './', 'ckpt_name': 'lenet', 'num_classes': 10, 'dataset': 'cifar10', 'use_gpu': True, 'input_size': 32, 'epochs': 250, 'batch_size': 128, 'test_batch': 200, 'eval_freq': 2, 'workers': 4, 'optimize': {'momentum': 0.9, 'weight_decay': 0.0001, 'nesterov': True}, 'mixup': False, 'mixup_alpha': 0.4, 'augmentation': {'normalize': True, 'random_crop': True, 'random_horizontal_filp': True, 'cutout': False, 'holes': 1, 'length': 8}, 'lr_scheduler': {'type': 'STEP', 'base_lr': 0.1, 'lr_epochs': [100, 150, 200], 'lr_mults': 0.1, 'min_lr': 0.0, 'lower_bound': -6.0, 'upper_bound': 3.0}}
[2019-08-17 13:24:49,615] - [train.py line:123] : LeNet(
  (conv_1): Conv2d(3, 6, kernel_size=(5, 5), stride=(1, 1))
  (conv_2): Conv2d(6, 16, kernel_size=(5, 5), stride=(1, 1))
  (fc_1): Linear(in_features=400, out_features=120, bias=True)
  (fc_2): Linear(in_features=120, out_features=84, bias=True)
  (fc_3): Linear(in_features=84, out_features=10, bias=True)
)
[2019-08-17 13:24:49,615] - [train.py line:124] : =====total parameters:62006
[2019-08-17 13:24:54,663] - [train.py line:151] :             =======  Training  =======

[2019-08-17 13:24:54,663] - [train.py line:36] : ====Epoch:[1/250]====
[2019-08-17 13:24:56,050] - [train.py line:61] :    == step: [100/391], train loss: 2.313 | train acc: 10.695% | lr: 0.100000
…
[2019-08-17 13:29:31,465] - [train.py line:120] : {'architecture': 'lenet', 'data_path': './data', 'ckpt_path': './', 'ckpt_name': 'lenet', 'num_classes': 10, 'dataset': 'cifar10', 'use_gpu': True, 'input_size': 32, 'epochs': 250, 'batch_size': 128, 'test_batch': 200, 'eval_freq': 2, 'workers': 4, 'optimize': {'momentum': 0.9, 'weight_decay': 0.0001, 'nesterov': True}, 'mixup': False, 'mixup_alpha': 0.4, 'augmentation': {'normalize': True, 'random_crop': True, 'random_horizontal_filp': True, 'cutout': False, 'holes': 1, 'length': 8}, 'lr_scheduler': {'type': 'STEP', 'base_lr': 0.1, 'lr_epochs': [100, 150, 200], 'lr_mults': 0.1, 'min_lr': 0.0, 'lower_bound': -6.0, 'upper_bound': 3.0}}
[2019-08-17 13:29:31,467] - [train.py line:123] : LeNet(
  (conv_1): Conv2d(3, 6, kernel_size=(5, 5), stride=(1, 1))
  (conv_2): Conv2d(6, 16, kernel_size=(5, 5), stride=(1, 1))
  (fc_1): Linear(in_features=400, out_features=120, bias=True)
  (fc_2): Linear(in_features=120, out_features=84, bias=True)
  (fc_3): Linear(in_features=84, out_features=10, bias=True)
)
[2019-08-17 13:29:31,467] - [train.py line:124] : =====total parameters:62006
[2019-08-17 13:29:35,218] - [train.py line:151] :             =======  Training  =======

[2019-08-17 13:29:35,219] - [train.py line:36] : ====Epoch:[1/250]====
[2019-08-17 13:29:36,274] - [train.py line:61] :    == step: [100/391], train loss: 2.110 | train acc: 20.555% | lr: 0.100000
…
