…
': 'cifar100', 'use_gpu': True, 'input_size': 32, 'epochs': 250, 'batch_size': 128, 'test_batch': 200, 'eval_freq': 2, 'workers': 4, 'optimize': {'momentum': 0.9, 'weight_decay': 0.0005, 'nesterov': True}, 'mixup': False, 'mixup_alpha': 0.4, 'augmentation': {'normalize': True, 'random_crop': True, 'random_horizontal_filp': True, 'cutout': False, 'holes': 1, 'length': 8}, 'lr_scheduler': {'type': 'STEP', 'base_lr': 0.1, 'lr_epochs': [100, 150, 200], 'lr_mults': 0.1, 'min_lr': 0.0, 'lower_bound': -6.0, 'upper_bound': 3.0}}
[2019-09-03 22:30:03,784] - [train.py line:123] : SKPreResneXt(
  (conv_1): Conv2d(3, 64, kernel_size=(3, 3), stride=(1, 1), padding=(1, 1), bias=False)
  (layer1): Sequential(
    (0): BottleNeck(
      (bn_1): BatchNorm2d(64, eps=1e-05, momentum=0.1, affine=True, track_running_stats=True)
      (conv_1): Conv2d(64, 128, kernel_size=(1, 1), stride=(1, 1), bias=False)
      (bn_2): BatchNorm2d(128, eps=1e-05, momentum=0.1, affine=True, track_running_stats=True)
      (conv_2): SKConv(
        (convs): ModuleList(
          (0): Sequential(
            (0): Conv2d(128, 128, kernel_size=(3, 3), stride=(1, 1), padding=(1, 1), groups=16)
            (1): BatchNorm2d(128, eps=1e-05, momentum=0.1, affine=True, track_running_stats=True)
            (2): ReLU(inplace=True)
          )
          (1): Sequential(
            (0): Conv2d(128, 128, kernel_size=(3, 3), stride=(1, 1), padding=(2, 2), dilation=(2, 2), groups=16)
            (1): BatchNorm2d(128, eps=1e-05, momentum=0.1, affine=True, track_running_stats=True)
            (2): ReLU(inplace=True)
          )
        )
        (globalpool): AdaptiveAvgPool2d(output_size=1)
        (fc): Linear(in_features=128, out_features=32, bias=True)
        (fcs): ModuleList(
          (0): Linear(in_features=32, out_features=128, bias=True)
          (1): Linear(in_features=32, out_features=128, bias=True)
        )
        (softmax): Softmax(dim=1)
      )
      (bn_3): BatchNorm2d(128, eps=1e-05, momentum=0.1, affine=True, track_running_stats=True)
      (conv_3): Conv2d(128, 256, kernel_size=(1, 1), stride=(1, 1), bias=False)
      (relu): ReLU(inplace=True)
      (downsample): Sequential(
        (0): Conv2d(64, 256, kernel_size=(1, 1), stride=(1, 1), bias=False)
      )
    )
    (1): BottleNeck(
      (bn_1): BatchNorm2d(256, eps=1e-05, momentum=0.1, affine=True, track_running_stats=True)
      (conv_1): Conv2d(256, 128, kernel_size=(1, 1), stride=(1, 1), bias=False)
      (bn_2): BatchNorm2d(128, eps=1e-05, momentum=0.1, affine=True, track_running_stats=True)
      (conv_2): SKConv(
        (convs): ModuleList(
          (0): Sequential(
            (0): Conv2d(128, 128, kernel_size=(3, 3), stride=(1, 1), padding=(1, 1), groups=16)
            (1): BatchNorm2d(128, eps=1e-05, momentum=0.1, affine=True, track_running_stats=True)
            (2): ReLU(inplace=True)
          )
          (1): Sequential(
            (0): Conv2d(128, 128, kernel_size=(3, 3), stride=(1, 1), padding=(2, 2), dilation=(2, 2), groups=16)
            (1): BatchNorm2d(128, eps=1e-05, momentum=0.1, affine=True, track_running_stats=True)
            (2): ReLU(inplace=True)
          )
        )
        (globalpool): AdaptiveAvgPool2d(output_size=1)
        (fc): Linear(in_features=128, out_features=32, bias=True)
        (fcs): ModuleList(
          (0): Linear(in_features=32, out_features=128, bias=True)
          (1): Linear(in_features=32, out_features=128, bias=True)
        )
        (softmax): Softmax(dim=1)
      )
      (bn_3): BatchNorm2d(128, eps=1e-05, momentum=0.1, affine=True, track_running_stats=True)
      (conv_3): Conv2d(128, 256, kernel_size=(1, 1), stride=(1, 1), bias=False)
      (relu): ReLU(inplace=True)
    )
    (2): BottleNeck(
      (bn_1): BatchNorm2d(256, eps=1e-05, momentum=0.1, affine=True, track_running_stats=True)
      (conv_1): Conv2d(256, 128, kernel_size=(1, 1), stride=(1, 1), bias=False)
      (bn_2): BatchNorm2d(128, eps=1e-05, momentum=0.1, affine=True, track_running_stats=True)
      (conv_2): SKConv(
        (convs): ModuleList(
          (0): Sequential(
            (0): Conv2d(128, 128, kernel_size=(3, 3), stride=(1, 1), padding=(1, 1), groups=16)
            (1): BatchNorm2d(128, eps=1e-05, momentum=0.1, affine=True, track_running_stats=True)
            (2): ReLU(inplace=True)
          )
          (1): Sequential(
            (0): Conv2d(128, 128, kernel_size=(3, 3), stride=(1, 1), padding=(2, 2), dilation=(2, 2), groups=16)
            (1): BatchNorm2d(128, eps=1e-05, momentum=0.1, affine=True, track_running_stats=True)
            (2): ReLU(inplace=True)
          )
        )
        (globalpool): AdaptiveAvgPool2d(output_size=1)
        (fc): Linear(in_features=128, out_features=32, bias=True)
        (fcs): ModuleList(
          (0): Linear(in_features=32, out_features=128, bias=True)
          (1): Linear(in_features=32, out_features=128, bias=True)
        )
        (softmax): Softmax(dim=1)
      )
      (bn_3): BatchNorm2d(128, eps=1e-05, momentum=0.1, affine=True, track_running_stats=True)
      (conv_3): Conv2d(128, 256, kernel_size=(1, 1), stride=(1, 1), bias=False)
      (relu): ReLU(inplace=True)
    )
  )
  (layer2): Sequential(
    (0): BottleNeck(
      (bn_1): BatchNorm2d(256, eps=1e-05, momentum=0.1, affine=True, track_running_stats=True)
      (conv_1): Conv2d(256, 256, kernel_size=(1, 1), stride=(1, 1), bias=False)
      (bn_2): BatchNorm2d(256, eps=1e-05, momentum=0.1, affine=True, track_running_stats=True)
      (conv_2): SKConv(
        (convs): ModuleList(
          (0): Sequential(
            (0): Conv2d(256, 256, kernel_size=(3, 3), stride=(2, 2), padding=(1, 1), groups=16)
            (1): BatchNorm2d(256, eps=1e-05, momentum=0.1, affine=True, track_running_stats=True)
            (2): ReLU(inplace=True)
          )
          (1): Sequential(
            (0): Conv2d(256, 256, kernel_size=(3, 3), stride=(2, 2), padding=(2, 2), dilation=(2, 2), groups=16)
            (1): BatchNorm2d(256, eps=1e-05, momentum=0.1, affine=True, track_running_stats=True)
            (2): ReLU(inplace=True)
          )
        )
        (globalpool): AdaptiveAvgPool2d(output_size=1)
        (fc): Linear(in_features=256, out_features=32, bias=True)
        (fcs): ModuleList(
          (0): Linear(in_features=32, out_features=256, bias=True)
          (1): Linear(in_features=32, out_features=256, bias=True)
        )
        (softmax): Softmax(dim=1)
      )
      (bn_3): BatchNorm2d(256, eps=1e-05, momentum=0.1, affine=True, track_running_stats=True)
      (conv_3): Conv2d(256, 512, kernel_size=(1, 1), stride=(1, 1), bias=False)
      (relu): ReLU(inplace=True)
      (downsample): Sequential(
        (0): Conv2d(256, 512, kernel_size=(1, 1), stride=(2, 2), bias=False)
      )
    )
    (1): BottleNeck(
      (bn_1): BatchNorm2d(512, eps=1e-05, momentum=0.1, affine=True, track_running_stats=True)
      (conv_1): Conv2d(512, 256, kernel_size=(1, 1), stride=(1, 1), bias=False)
      (bn_2): BatchNorm2d(256, eps=1e-05, momentum=0.1, affine=True, track_running_stats=True)
      (conv_2): SKConv(
        (convs): ModuleList(
          (0): Sequential(
            (0): Conv2d(256, 256, kernel_size=(3, 3), stride=(1, 1), padding=(1, 1), groups=16)
            (1): BatchNorm2d(256, eps=1e-05, momentum=0.1, affine=True, track_running_stats=True)
            (2): ReLU(inplace=True)
          )
          (1): Sequential(
            (0): Conv2d(256, 256, kernel_size=(3, 3), stride=(1, 1), padding=(2, 2), dilation=(2, 2), groups=16)
            (1): BatchNorm2d(256, eps=1e-05, momentum=0.1, affine=True, track_running_stats=True)
            (2): ReLU(inplace=True)
          )
        )
        (globalpool): AdaptiveAvgPool2d(output_size=1)
        (fc): Linear(in_features=256, out_features=32, bias=True)
        (fcs): ModuleList(
          (0): Linear(in_features=32, out_features=256, bias=True)
          (1): Linear(in_features=32, out_features=256, bias=True)
        )
        (softmax): Softmax(dim=1)
      )
      (bn_3): BatchNorm2d(256, eps=1e-05, momentum=0.1, affine=True, track_running_stats=True)
      (conv_3): Conv2d(256, 512, kernel_size=(1, 1), stride=(1, 1), bias=False)
      (relu): ReLU(inplace=True)
    )
    (2): BottleNeck(
      (bn_1): BatchNorm2d(512, eps=1e-05, momentum=0.1, affine=True, track_running_stats=True)
      (conv_1): Conv2d(512, 256, kernel_size=(1, 1), stride=(1, 1), bias=False)
      (bn_2): BatchNorm2d(256, eps=1e-05, momentum=0.1, affine=True, track_running_stats=True)
      (conv_2): SKConv(
        (convs): ModuleList(
          (0): Sequential(
            (0): Conv2d(256, 256, kernel_size=(3, 3), stride=(1, 1), padding=(1, 1), groups=16)
            (1): BatchNorm2d(256, eps=1e-05, momentum=0.1, affine=True, track_running_stats=True)
            (2): ReLU(inplace=True)
          )
          (1): Sequential(
            (0): Conv2d(256, 256, kernel_size=(3, 3), stride=(1, 1), padding=(2, 2), dilation=(2, 2), groups=16)
            (1): BatchNorm2d(256, eps=1e-05, momentum=0.1, affine=True, track_running_stats=True)
            (2): ReLU(inplace=True)
          )
        )
        (globalpool): AdaptiveAvgPool2d(output_size=1)
        (fc): Linear(in_features=256, out_features=32, bias=True)
        (fcs): ModuleList(
          (0): Linear(in_features=32, out_features=256, bias=True)
          (1): Linear(in_features=32, out_features=256, bias=True)
        )
        (softmax): Softmax(dim=1)
      )
      (bn_3): BatchNorm2d(256, eps=1e-05, momentum=0.1, affine=True, track_running_stats=True)
      (conv_3): Conv2d(256, 512, kernel_size=(1, 1), stride=(1, 1), bias=False)
      (relu): ReLU(inplace=True)
    )
  )
  (layer3): Sequential(
    (0): BottleNeck(
      (bn_1): BatchNorm2d(512, eps=1e-05, momentum=0.1, affine=True, track_running_stats=True)
      (conv_1): Conv2d(512, 384, kernel_size=(1, 1), stride=(1, 1), bias=False)
      (bn_2): BatchNorm2d(384, eps=1e-05, momentum=0.1, affine=True, track_running_stats=True)
      (conv_2): SKConv(
        (convs): ModuleList(
          (0): Sequential(
            (0): Conv2d(384, 384, kernel_size=(3, 3), stride=(2, 2), padding=(1, 1), groups=16)
            (1): BatchNorm2d(384, eps=1e-05, momentum=0.1, affine=True, track_running_stats=True)
            (2): ReLU(inplace=True)
          )
          (1): Sequential(
            (0): Conv2d(384, 384, kernel_size=(3, 3), stride=(2, 2), padding=(2, 2), dilation=(2, 2), groups=16)
            (1): BatchNorm2d(384, eps=1e-05, momentum=0.1, affine=True, track_running_stats=True)
            (2): ReLU(inplace=True)
          )
        )
        (globalpool): AdaptiveAvgPool2d(output_size=1)
        (fc): Linear(in_features=384, out_features=32, bias=True)
        (fcs): ModuleList(
          (0): Linear(in_features=32, out_features=384, bias=True)
          (1): Linear(in_features=32, out_features=384, bias=True)
        )
        (softmax): Softmax(dim=1)
      )
      (bn_3): BatchNorm2d(384, eps=1e-05, momentum=0.1, affine=True, track_running_stats=True)
      (conv_3): Conv2d(384, 1024, kernel_size=(1, 1), stride=(1, 1), bias=False)
      (relu): ReLU(inplace=True)
      (downsample): Sequential(
        (0): Conv2d(512, 1024, kernel_size=(1, 1), stride=(2, 2), bias=False)
      )
    )
    (1): BottleNeck(
      (bn_1): BatchNorm2d(1024, eps=1e-05, momentum=0.1, affine=True, track_running_stats=True)
      (conv_1): Conv2d(1024, 384, kernel_size=(1, 1), stride=(1, 1), bias=False)
      (bn_2): BatchNorm2d(384, eps=1e-05, momentum=0.1, affine=True, track_running_stats=True)
      (conv_2): SKConv(
        (convs): ModuleList(
          (0): Sequential(
            (0): Conv2d(384, 384, kernel_size=(3, 3), stride=(1, 1), padding=(1, 1), groups=16)
            (1): BatchNorm2d(384, eps=1e-05, momentum=0.1, affine=True, track_running_stats=True)
            (2): ReLU(inplace=True)
          )
          (1): Sequential(
            (0): Conv2d(384, 384, kernel_size=(3, 3), stride=(1, 1), padding=(2, 2), dilation=(2, 2), groups=16)
            (1): BatchNorm2d(384, eps=1e-05, momentum=0.1, affine=True, track_running_stats=True)
            (2): ReLU(inplace=True)
          )
        )
        (globalpool): AdaptiveAvgPool2d(output_size=1)
        (fc): Linear(in_features=384, out_features=32, bias=True)
        (fcs): ModuleList(
          (0): Linear(in_features=32, out_features=384, bias=True)
          (1): Linear(in_features=32, out_features=384, bias=True)
        )
        (softmax): Softmax(dim=1)
      )
      (bn_3): BatchNorm2d(384, eps=1e-05, momentum=0.1, affine=True, track_running_stats=True)
      (conv_3): Conv2d(384, 1024, kernel_size=(1, 1), stride=(1, 1), bias=False)
      (relu): ReLU(inplace=True)
    )
    (2): BottleNeck(
      (bn_1): BatchNorm2d(1024, eps=1e-05, momentum=0.1, affine=True, track_running_stats=True)
      (conv_1): Conv2d(1024, 384, kernel_size=(1, 1), stride=(1, 1), bias=False)
      (bn_2): BatchNorm2d(384, eps=1e-05, momentum=0.1, affine=True, track_running_stats=True)
      (conv_2): SKConv(
        (convs): ModuleList(
          (0): Sequential(
            (0): Conv2d(384, 384, kernel_size=(3, 3), stride=(1, 1), padding=(1, 1), groups=16)
            (1): BatchNorm2d(384, eps=1e-05, momentum=0.1, affine=True, track_running_stats=True)
            (2): ReLU(inplace=True)
          )
          (1): Sequential(
            (0): Conv2d(384, 384, kernel_size=(3, 3), stride=(1, 1), padding=(2, 2), dilation=(2, 2), groups=16)
            (1): BatchNorm2d(384, eps=1e-05, momentum=0.1, affine=True, track_running_stats=True)
            (2): ReLU(inplace=True)
          )
        )
        (globalpool): AdaptiveAvgPool2d(output_size=1)
        (fc): Linear(in_features=384, out_features=32, bias=True)
        (fcs): ModuleList(
          (0): Linear(in_features=32, out_features=384, bias=True)
          (1): Linear(in_features=32, out_features=384, bias=True)
        )
        (softmax): Softmax(dim=1)
      )
      (bn_3): BatchNorm2d(384, eps=1e-05, momentum=0.1, affine=True, track_running_stats=True)
      (conv_3): Conv2d(384, 1024, kernel_size=(1, 1), stride=(1, 1), bias=False)
      (relu): ReLU(inplace=True)
    )
  )
  (bn): BatchNorm2d(1024, eps=1e-05, momentum=0.1, affine=True, track_running_stats=True)
  (relu): ReLU(inplace=True)
  (avgpool): AvgPool2d(kernel_size=8, stride=1, padding=0)
  (fc): Linear(in_features=1024, out_features=100, bias=True)
)
[2019-09-03 22:30:03,787] - [train.py line:124] : =====total parameters:4865732
[2019-09-03 22:30:07,738] - [train.py line:151] : ==============trian-test-file-pathLcifar100
[2019-09-03 22:30:07,739] - [train.py line:152] :             =======  Training  =======

[2019-09-03 22:30:07,739] - [train.py line:36] : ====Epoch:[1/250]====
[2019-09-03 22:30:53,362] - [train.py line:61] :    == step: [100/391], train loss: 4.198 | train acc:  6.641% | lr: 0.100000
…
