…
: 'cifar100', 'use_gpu': True, 'input_size': 32, 'epochs': 250, 'batch_size': 128, 'test_batch': 200, 'eval_freq': 2, 'workers': 4, 'optimize': {'momentum': 0.9, 'weight_decay': 0.0005, 'nesterov': True}, 'mixup': False, 'mixup_alpha': 0.4, 'augmentation': {'normalize': True, 'random_crop': True, 'random_horizontal_filp': True, 'cutout': False, 'holes': 1, 'length': 8}, 'lr_scheduler': {'type': 'STEP', 'base_lr': 0.1, 'lr_epochs': [100, 150, 200], 'lr_mults': 0.1, 'min_lr': 0.0, 'lower_bound': -6.0, 'upper_bound': 3.0}}
[2019-09-01 14:41:24,862] - [train.py line:123] : BamPreResneXt(
  (conv_1): Conv2d(3, 64, kernel_size=(3, 3), stride=(1, 1), padding=(1, 1), bias=False)
  (layer1): Sequential(
    (0): BottleNeck(
      (bn_1): BatchNorm2d(64, eps=1e-05, momentum=0.1, affine=True, track_running_stats=True)
      (conv_1): Conv2d(64, 256, kernel_size=(1, 1), stride=(1, 1), bias=False)
      (bn_2): BatchNorm2d(256, eps=1e-05, momentum=0.1, affine=True, track_running_stats=True)
      (conv_2): Conv2d(256, 256, kernel_size=(3, 3), stride=(1, 1), padding=(1, 1), groups=32, bias=False)
      (bn_3): BatchNorm2d(256, eps=1e-05, momentum=0.1, affine=True, track_running_stats=True)
      (conv_3): Conv2d(256, 256, kernel_size=(1, 1), stride=(1, 1), bias=False)
      (relu): ReLU(inplace=True)
      (downsample): Sequential(
        (0): Conv2d(64, 256, kernel_size=(1, 1), stride=(1, 1), bias=False)
      )
      (globalAvgPool): AvgPool2d(kernel_size=32, stride=1, padding=0)
      (fc1): Linear(in_features=256, out_features=16, bias=True)
      (fc2): Linear(in_features=16, out_features=256, bias=True)
      (sigmoid): Sigmoid()
      (conv_ms1): Conv2d(256, 16, kernel_size=(1, 1), stride=(1, 1), bias=False)
      (conv_ms2): Conv2d(16, 16, kernel_size=(3, 3), stride=(1, 1), padding=(4, 4), dilation=(4, 4), bias=False)
      (conv_ms3): Conv2d(16, 16, kernel_size=(3, 3), stride=(1, 1), padding=(4, 4), dilation=(4, 4), bias=False)
      (conv_ms4): Conv2d(16, 1, kernel_size=(1, 1), stride=(1, 1), bias=False)
      (bn_16): BatchNorm2d(16, eps=1e-05, momentum=0.1, affine=True, track_running_stats=True)
    )
    (1): BottleNeck(
      (bn_1): BatchNorm2d(256, eps=1e-05, momentum=0.1, affine=True, track_running_stats=True)
      (conv_1): Conv2d(256, 256, kernel_size=(1, 1), stride=(1, 1), bias=False)
      (bn_2): BatchNorm2d(256, eps=1e-05, momentum=0.1, affine=True, track_running_stats=True)
      (conv_2): Conv2d(256, 256, kernel_size=(3, 3), stride=(1, 1), padding=(1, 1), groups=32, bias=False)
      (bn_3): BatchNorm2d(256, eps=1e-05, momentum=0.1, affine=True, track_running_stats=True)
      (conv_3): Conv2d(256, 256, kernel_size=(1, 1), stride=(1, 1), bias=False)
      (relu): ReLU(inplace=True)
      (globalAvgPool): AvgPool2d(kernel_size=32, stride=1, padding=0)
      (fc1): Linear(in_features=256, out_features=16, bias=True)
      (fc2): Linear(in_features=16, out_features=256, bias=True)
      (sigmoid): Sigmoid()
      (conv_ms1): Conv2d(256, 16, kernel_size=(1, 1), stride=(1, 1), bias=False)
      (conv_ms2): Conv2d(16, 16, kernel_size=(3, 3), stride=(1, 1), padding=(4, 4), dilation=(4, 4), bias=False)
      (conv_ms3): Conv2d(16, 16, kernel_size=(3, 3), stride=(1, 1), padding=(4, 4), dilation=(4, 4), bias=False)
      (conv_ms4): Conv2d(16, 1, kernel_size=(1, 1), stride=(1, 1), bias=False)
      (bn_16): BatchNorm2d(16, eps=1e-05, momentum=0.1, affine=True, track_running_stats=True)
    )
    (2): BottleNeck(
      (bn_1): BatchNorm2d(256, eps=1e-05, momentum=0.1, affine=True, track_running_stats=True)
      (conv_1): Conv2d(256, 256, kernel_size=(1, 1), stride=(1, 1), bias=False)
      (bn_2): BatchNorm2d(256, eps=1e-05, momentum=0.1, affine=True, track_running_stats=True)
      (conv_2): Conv2d(256, 256, kernel_size=(3, 3), stride=(1, 1), padding=(1, 1), groups=32, bias=False)
      (bn_3): BatchNorm2d(256, eps=1e-05, momentum=0.1, affine=True, track_running_stats=True)
      (conv_3): Conv2d(256, 256, kernel_size=(1, 1), stride=(1, 1), bias=False)
      (relu): ReLU(inplace=True)
      (globalAvgPool): AvgPool2d(kernel_size=32, stride=1, padding=0)
      (fc1): Linear(in_features=256, out_features=16, bias=True)
      (fc2): Linear(in_features=16, out_features=256, bias=True)
      (sigmoid): Sigmoid()
      (conv_ms1): Conv2d(256, 16, kernel_size=(1, 1), stride=(1, 1), bias=False)
      (conv_ms2): Conv2d(16, 16, kernel_size=(3, 3), stride=(1, 1), padding=(4, 4), dilation=(4, 4), bias=False)
      (conv_ms3): Conv2d(16, 16, kernel_size=(3, 3), stride=(1, 1), padding=(4, 4), dilation=(4, 4), bias=False)
      (conv_ms4): Conv2d(16, 1, kernel_size=(1, 1), stride=(1, 1), bias=False)
      (bn_16): BatchNorm2d(16, eps=1e-05, momentum=0.1, affine=True, track_running_stats=True)
    )
  )
  (layer2): Sequential(
    (0): BottleNeck(
      (bn_1): BatchNorm2d(256, eps=1e-05, momentum=0.1, affine=True, track_running_stats=True)
      (conv_1): Conv2d(256, 512, kernel_size=(1, 1), stride=(1, 1), bias=False)
      (bn_2): BatchNorm2d(512, eps=1e-05, momentum=0.1, affine=True, track_running_stats=True)
      (conv_2): Conv2d(512, 512, kernel_size=(3, 3), stride=(2, 2), padding=(1, 1), groups=32, bias=False)
      (bn_3): BatchNorm2d(512, eps=1e-05, momentum=0.1, affine=True, track_running_stats=True)
      (conv_3): Conv2d(512, 512, kernel_size=(1, 1), stride=(1, 1), bias=False)
      (relu): ReLU(inplace=True)
      (downsample): Sequential(
        (0): Conv2d(256, 512, kernel_size=(1, 1), stride=(2, 2), bias=False)
      )
      (globalAvgPool): AvgPool2d(kernel_size=16, stride=1, padding=0)
      (fc1): Linear(in_features=512, out_features=32, bias=True)
      (fc2): Linear(in_features=32, out_features=512, bias=True)
      (sigmoid): Sigmoid()
      (conv_ms1): Conv2d(512, 32, kernel_size=(1, 1), stride=(1, 1), bias=False)
      (conv_ms2): Conv2d(32, 32, kernel_size=(3, 3), stride=(1, 1), padding=(4, 4), dilation=(4, 4), bias=False)
      (conv_ms3): Conv2d(32, 32, kernel_size=(3, 3), stride=(1, 1), padding=(4, 4), dilation=(4, 4), bias=False)
      (conv_ms4): Conv2d(32, 1, kernel_size=(1, 1), stride=(1, 1), bias=False)
      (bn_16): BatchNorm2d(32, eps=1e-05, momentum=0.1, affine=True, track_running_stats=True)
    )
    (1): BottleNeck(
      (bn_1): BatchNorm2d(512, eps=1e-05, momentum=0.1, affine=True, track_running_stats=True)
      (conv_1): Conv2d(512, 512, kernel_size=(1, 1), stride=(1, 1), bias=False)
      (bn_2): BatchNorm2d(512, eps=1e-05, momentum=0.1, affine=True, track_running_stats=True)
      (conv_2): Conv2d(512, 512, kernel_size=(3, 3), stride=(1, 1), padding=(1, 1), groups=32, bias=False)
      (bn_3): BatchNorm2d(512, eps=1e-05, momentum=0.1, affine=True, track_running_stats=True)
      (conv_3): Conv2d(512, 512, kernel_size=(1, 1), stride=(1, 1), bias=False)
      (relu): ReLU(inplace=True)
      (globalAvgPool): AvgPool2d(kernel_size=16, stride=1, padding=0)
      (fc1): Linear(in_features=512, out_features=32, bias=True)
      (fc2): Linear(in_features=32, out_features=512, bias=True)
      (sigmoid): Sigmoid()
      (conv_ms1): Conv2d(512, 32, kernel_size=(1, 1), stride=(1, 1), bias=False)
      (conv_ms2): Conv2d(32, 32, kernel_size=(3, 3), stride=(1, 1), padding=(4, 4), dilation=(4, 4), bias=False)
      (conv_ms3): Conv2d(32, 32, kernel_size=(3, 3), stride=(1, 1), padding=(4, 4), dilation=(4, 4), bias=False)
      (conv_ms4): Conv2d(32, 1, kernel_size=(1, 1), stride=(1, 1), bias=False)
      (bn_16): BatchNorm2d(32, eps=1e-05, momentum=0.1, affine=True, track_running_stats=True)
    )
    (2): BottleNeck(
      (bn_1): BatchNorm2d(512, eps=1e-05, momentum=0.1, affine=True, track_running_stats=True)
      (conv_1): Conv2d(512, 512, kernel_size=(1, 1), stride=(1, 1), bias=False)
      (bn_2): BatchNorm2d(512, eps=1e-05, momentum=0.1, affine=True, track_running_stats=True)
      (conv_2): Conv2d(512, 512, kernel_size=(3, 3), stride=(1, 1), padding=(1, 1), groups=32, bias=False)
      (bn_3): BatchNorm2d(512, eps=1e-05, momentum=0.1, affine=True, track_running_stats=True)
      (conv_3): Conv2d(512, 512, kernel_size=(1, 1), stride=(1, 1), bias=False)
      (relu): ReLU(inplace=True)
      (globalAvgPool): AvgPool2d(kernel_size=16, stride=1, padding=0)
      (fc1): Linear(in_features=512, out_features=32, bias=True)
      (fc2): Linear(in_features=32, out_features=512, bias=True)
      (sigmoid): Sigmoid()
      (conv_ms1): Conv2d(512, 32, kernel_size=(1, 1), stride=(1, 1), bias=False)
      (conv_ms2): Conv2d(32, 32, kernel_size=(3, 3), stride=(1, 1), padding=(4, 4), dilation=(4, 4), bias=False)
      (conv_ms3): Conv2d(32, 32, kernel_size=(3, 3), stride=(1, 1), padding=(4, 4), dilation=(4, 4), bias=False)
      (conv_ms4): Conv2d(32, 1, kernel_size=(1, 1), stride=(1, 1), bias=False)
      (bn_16): BatchNorm2d(32, eps=1e-05, momentum=0.1, affine=True, track_running_stats=True)
    )
  )
  (layer3): Sequential(
    (0): BottleNeck(
      (bn_1): BatchNorm2d(512, eps=1e-05, momentum=0.1, affine=True, track_running_stats=True)
      (conv_1): Conv2d(512, 768, kernel_size=(1, 1), stride=(1, 1), bias=False)
      (bn_2): BatchNorm2d(768, eps=1e-05, momentum=0.1, affine=True, track_running_stats=True)
      (conv_2): Conv2d(768, 768, kernel_size=(3, 3), stride=(2, 2), padding=(1, 1), groups=32, bias=False)
      (bn_3): BatchNorm2d(768, eps=1e-05, momentum=0.1, affine=True, track_running_stats=True)
      (conv_3): Conv2d(768, 1024, kernel_size=(1, 1), stride=(1, 1), bias=False)
      (relu): ReLU(inplace=True)
      (downsample): Sequential(
        (0): Conv2d(512, 1024, kernel_size=(1, 1), stride=(2, 2), bias=False)
      )
      (globalAvgPool): AvgPool2d(kernel_size=8, stride=1, padding=0)
      (fc1): Linear(in_features=1024, out_features=64, bias=True)
      (fc2): Linear(in_features=64, out_features=1024, bias=True)
      (sigmoid): Sigmoid()
      (conv_ms1): Conv2d(1024, 64, kernel_size=(1, 1), stride=(1, 1), bias=False)
      (conv_ms2): Conv2d(64, 64, kernel_size=(3, 3), stride=(1, 1), padding=(4, 4), dilation=(4, 4), bias=False)
      (conv_ms3): Conv2d(64, 64, kernel_size=(3, 3), stride=(1, 1), padding=(4, 4), dilation=(4, 4), bias=False)
      (conv_ms4): Conv2d(64, 1, kernel_size=(1, 1), stride=(1, 1), bias=False)
      (bn_16): BatchNorm2d(64, eps=1e-05, momentum=0.1, affine=True, track_running_stats=True)
    )
    (1): BottleNeck(
      (bn_1): BatchNorm2d(1024, eps=1e-05, momentum=0.1, affine=True, track_running_stats=True)
      (conv_1): Conv2d(1024, 768, kernel_size=(1, 1), stride=(1, 1), bias=False)
      (bn_2): BatchNorm2d(768, eps=1e-05, momentum=0.1, affine=True, track_running_stats=True)
      (conv_2): Conv2d(768, 768, kernel_size=(3, 3), stride=(1, 1), padding=(1, 1), groups=32, bias=False)
      (bn_3): BatchNorm2d(768, eps=1e-05, momentum=0.1, affine=True, track_running_stats=True)
      (conv_3): Conv2d(768, 1024, kernel_size=(1, 1), stride=(1, 1), bias=False)
      (relu): ReLU(inplace=True)
      (globalAvgPool): AvgPool2d(kernel_size=8, stride=1, padding=0)
      (fc1): Linear(in_features=1024, out_features=64, bias=True)
      (fc2): Linear(in_features=64, out_features=1024, bias=True)
      (sigmoid): Sigmoid()
      (conv_ms1): Conv2d(1024, 64, kernel_size=(1, 1), stride=(1, 1), bias=False)
      (conv_ms2): Conv2d(64, 64, kernel_size=(3, 3), stride=(1, 1), padding=(4, 4), dilation=(4, 4), bias=False)
      (conv_ms3): Conv2d(64, 64, kernel_size=(3, 3), stride=(1, 1), padding=(4, 4), dilation=(4, 4), bias=False)
      (conv_ms4): Conv2d(64, 1, kernel_size=(1, 1), stride=(1, 1), bias=False)
      (bn_16): BatchNorm2d(64, eps=1e-05, momentum=0.1, affine=True, track_running_stats=True)
    )
    (2): BottleNeck(
      (bn_1): BatchNorm2d(1024, eps=1e-05, momentum=0.1, affine=True, track_running_stats=True)
      (conv_1): Conv2d(1024, 768, kernel_size=(1, 1), stride=(1, 1), bias=False)
      (bn_2): BatchNorm2d(768, eps=1e-05, momentum=0.1, affine=True, track_running_stats=True)
      (conv_2): Conv2d(768, 768, kernel_size=(3, 3), stride=(1, 1), padding=(1, 1), groups=32, bias=False)
      (bn_3): BatchNorm2d(768, eps=1e-05, momentum=0.1, affine=True, track_running_stats=True)
      (conv_3): Conv2d(768, 1024, kernel_size=(1, 1), stride=(1, 1), bias=False)
      (relu): ReLU(inplace=True)
      (globalAvgPool): AvgPool2d(kernel_size=8, stride=1, padding=0)
      (fc1): Linear(in_features=1024, out_features=64, bias=True)
      (fc2): Linear(in_features=64, out_features=1024, bias=True)
      (sigmoid): Sigmoid()
      (conv_ms1): Conv2d(1024, 64, kernel_size=(1, 1), stride=(1, 1), bias=False)
      (conv_ms2): Conv2d(64, 64, kernel_size=(3, 3), stride=(1, 1), padding=(4, 4), dilation=(4, 4), bias=False)
      (conv_ms3): Conv2d(64, 64, kernel_size=(3, 3), stride=(1, 1), padding=(4, 4), dilation=(4, 4), bias=False)
      (conv_ms4): Conv2d(64, 1, kernel_size=(1, 1), stride=(1, 1), bias=False)
      (bn_16): BatchNorm2d(64, eps=1e-05, momentum=0.1, affine=True, track_running_stats=True)
    )
  )
  (bn): BatchNorm2d(1024, eps=1e-05, momentum=0.1, affine=True, track_running_stats=True)
  (relu): ReLU(inplace=True)
  (avgpool): AvgPool2d(kernel_size=8, stride=1, padding=0)
  (fc): Linear(in_features=1024, out_features=100, bias=True)
)
[2019-09-01 14:41:24,864] - [train.py line:124] : =====total parameters:8761828
[2019-09-01 14:41:28,658] - [train.py line:151] : ==============trian-test-file-pathLcifar100
[2019-09-01 14:41:28,658] - [train.py line:152] :             =======  Training  =======

[2019-09-01 14:41:28,658] - [train.py line:36] : ====Epoch:[1/250]====
[2019-09-01 14:42:17,917] - [train.py line:61] :    == step: [100/391], train loss: 4.230 | train acc:  6.164% | lr: 0.100000
…
[2019-09-01 18:09:21,934] - [train.py line:120] : {'architecture': 'bam_preresneXt29_32x8d', 'data_path': './data', 'ckpt_path': './', 'ckpt_name': 'bam_preresneXt29_32x8d', 'num_classes': 100, 'dataset': 'cifar100', 'use_gpu': True, 'input_size': 32, 'epochs': 250, 'batch_size': 128, 'test_batch': 200, 'eval_freq': 2, 'workers': 4, 'optimize': {'momentum': 0.9, 'weight_decay': 0.0005, 'nesterov': True}, 'mixup': False, 'mixup_alpha': 0.4, 'augmentation': {'normalize': True, 'random_crop': True, 'random_horizontal_filp': True, 'cutout': False, 'holes': 1, 'length': 8}, 'lr_scheduler': {'type': 'STEP', 'base_lr': 0.1, 'lr_epochs': [100, 150, 200], 'lr_mults': 0.1, 'min_lr': 0.0, 'lower_bound': -6.0, 'upper_bound': 3.0}}
[2019-09-01 18:09:22,021] - [train.py line:123] : BamPreResneXt(
  (conv_1): Conv2d(3, 64, kernel_size=(3, 3), stride=(1, 1), padding=(1, 1), bias=False)
  (layer1): Sequential(
    (0): BottleNeck(
      (bn_1): BatchNorm2d(64, eps=1e-05, momentum=0.1, affine=True, track_running_stats=True)
      (conv_1): Conv2d(64, 256, kernel_size=(1, 1), stride=(1, 1), bias=False)
      (bn_2): BatchNorm2d(256, eps=1e-05, momentum=0.1, affine=True, track_running_stats=True)
      (conv_2): Conv2d(256, 256, kernel_size=(3, 3), stride=(1, 1), padding=(1, 1), groups=32, bias=False)
      (bn_3): BatchNorm2d(256, eps=1e-05, momentum=0.1, affine=True, track_running_stats=True)
      (conv_3): Conv2d(256, 256, kernel_size=(1, 1), stride=(1, 1), bias=False)
      (relu): ReLU(inplace=True)
      (downsample): Sequential(
        (0): Conv2d(64, 256, kernel_size=(1, 1), stride=(1, 1), bias=False)
      )
      (CBAM): CBAM(
        (channel_gate): ChannelGate(
          (mlp): Sequential(
            (0): Flatten()
            (1): Linear(in_features=256, out_features=16, bias=True)
            (2): ReLU(inplace=True)
            (3): Linear(in_features=16, out_features=256, bias=True)
          )
        )
        (spatial_gate): SpatialGate(
          (compress): ChannelPool()
          (conv): Conv2d(2, 1, kernel_size=(7, 7), stride=(1, 1), padding=(3, 3), bias=False)
        )
      )
    )
    (1): BottleNeck(
      (bn_1): BatchNorm2d(256, eps=1e-05, momentum=0.1, affine=True, track_running_stats=True)
      (conv_1): Conv2d(256, 256, kernel_size=(1, 1), stride=(1, 1), bias=False)
      (bn_2): BatchNorm2d(256, eps=1e-05, momentum=0.1, affine=True, track_running_stats=True)
      (conv_2): Conv2d(256, 256, kernel_size=(3, 3), stride=(1, 1), padding=(1, 1), groups=32, bias=False)
      (bn_3): BatchNorm2d(256, eps=1e-05, momentum=0.1, affine=True, track_running_stats=True)
      (conv_3): Conv2d(256, 256, kernel_size=(1, 1), stride=(1, 1), bias=False)
      (relu): ReLU(inplace=True)
      (CBAM): CBAM(
        (channel_gate): ChannelGate(
          (mlp): Sequential(
            (0): Flatten()
            (1): Linear(in_features=256, out_features=16, bias=True)
            (2): ReLU(inplace=True)
            (3): Linear(in_features=16, out_features=256, bias=True)
          )
        )
        (spatial_gate): SpatialGate(
          (compress): ChannelPool()
          (conv): Conv2d(2, 1, kernel_size=(7, 7), stride=(1, 1), padding=(3, 3), bias=False)
        )
      )
    )
    (2): BottleNeck(
      (bn_1): BatchNorm2d(256, eps=1e-05, momentum=0.1, affine=True, track_running_stats=True)
      (conv_1): Conv2d(256, 256, kernel_size=(1, 1), stride=(1, 1), bias=False)
      (bn_2): BatchNorm2d(256, eps=1e-05, momentum=0.1, affine=True, track_running_stats=True)
      (conv_2): Conv2d(256, 256, kernel_size=(3, 3), stride=(1, 1), padding=(1, 1), groups=32, bias=False)
      (bn_3): BatchNorm2d(256, eps=1e-05, momentum=0.1, affine=True, track_running_stats=True)
      (conv_3): Conv2d(256, 256, kernel_size=(1, 1), stride=(1, 1), bias=False)
      (relu): ReLU(inplace=True)
      (CBAM): CBAM(
        (channel_gate): ChannelGate(
          (mlp): Sequential(
            (0): Flatten()
            (1): Linear(in_features=256, out_features=16, bias=True)
            (2): ReLU(inplace=True)
            (3): Linear(in_features=16, out_features=256, bias=True)
          )
        )
        (spatial_gate): SpatialGate(
          (compress): ChannelPool()
          (conv): Conv2d(2, 1, kernel_size=(7, 7), stride=(1, 1), padding=(3, 3), bias=False)
        )
      )
    )
  )
  (layer2): Sequential(
    (0): BottleNeck(
      (bn_1): BatchNorm2d(256, eps=1e-05, momentum=0.1, affine=True, track_running_stats=True)
      (conv_1): Conv2d(256, 512, kernel_size=(1, 1), stride=(1, 1), bias=False)
      (bn_2): BatchNorm2d(512, eps=1e-05, momentum=0.1, affine=True, track_running_stats=True)
      (conv_2): Conv2d(512, 512, kernel_size=(3, 3), stride=(2, 2), padding=(1, 1), groups=32, bias=False)
      (bn_3): BatchNorm2d(512, eps=1e-05, momentum=0.1, affine=True, track_running_stats=True)
      (conv_3): Conv2d(512, 512, kernel_size=(1, 1), stride=(1, 1), bias=False)
      (relu): ReLU(inplace=True)
      (downsample): Sequential(
        (0): Conv2d(256, 512, kernel_size=(1, 1), stride=(2, 2), bias=False)
      )
      (CBAM): CBAM(
        (channel_gate): ChannelGate(
          (mlp): Sequential(
            (0): Flatten()
            (1): Linear(in_features=512, out_features=32, bias=True)
            (2): ReLU(inplace=True)
            (3): Linear(in_features=32, out_features=512, bias=True)
          )
        )
        (spatial_gate): SpatialGate(
          (compress): ChannelPool()
          (conv): Conv2d(2, 1, kernel_size=(7, 7), stride=(1, 1), padding=(3, 3), bias=False)
        )
      )
    )
    (1): BottleNeck(
      (bn_1): BatchNorm2d(512, eps=1e-05, momentum=0.1, affine=True, track_running_stats=True)
      (conv_1): Conv2d(512, 512, kernel_size=(1, 1), stride=(1, 1), bias=False)
      (bn_2): BatchNorm2d(512, eps=1e-05, momentum=0.1, affine=True, track_running_stats=True)
      (conv_2): Conv2d(512, 512, kernel_size=(3, 3), stride=(1, 1), padding=(1, 1), groups=32, bias=False)
      (bn_3): BatchNorm2d(512, eps=1e-05, momentum=0.1, affine=True, track_running_stats=True)
      (conv_3): Conv2d(512, 512, kernel_size=(1, 1), stride=(1, 1), bias=False)
      (relu): ReLU(inplace=True)
      (CBAM): CBAM(
        (channel_gate): ChannelGate(
          (mlp): Sequential(
            (0): Flatten()
            (1): Linear(in_features=512, out_features=32, bias=True)
            (2): ReLU(inplace=True)
            (3): Linear(in_features=32, out_features=512, bias=True)
          )
        )
        (spatial_gate): SpatialGate(
          (compress): ChannelPool()
          (conv): Conv2d(2, 1, kernel_size=(7, 7), stride=(1, 1), padding=(3, 3), bias=False)
        )
      )
    )
    (2): BottleNeck(
      (bn_1): BatchNorm2d(512, eps=1e-05, momentum=0.1, affine=True, track_running_stats=True)
      (conv_1): Conv2d(512, 512, kernel_size=(1, 1), stride=(1, 1), bias=False)
      (bn_2): BatchNorm2d(512, eps=1e-05, momentum=0.1, affine=True, track_running_stats=True)
      (conv_2): Conv2d(512, 512, kernel_size=(3, 3), stride=(1, 1), padding=(1, 1), groups=32, bias=False)
      (bn_3): BatchNorm2d(512, eps=1e-05, momentum=0.1, affine=True, track_running_stats=True)
      (conv_3): Conv2d(512, 512, kernel_size=(1, 1), stride=(1, 1), bias=False)
      (relu): ReLU(inplace=True)
      (CBAM): CBAM(
        (channel_gate): ChannelGate(
          (mlp): Sequential(
            (0): Flatten()
            (1): Linear(in_features=512, out_features=32, bias=True)
            (2): ReLU(inplace=True)
            (3): Linear(in_features=32, out_features=512, bias=True)
          )
        )
        (spatial_gate): SpatialGate(
          (compress): ChannelPool()
          (conv): Conv2d(2, 1, kernel_size=(7, 7), stride=(1, 1), padding=(3, 3), bias=False)
        )
      )
    )
  )
  (layer3): Sequential(
    (0): BottleNeck(
      (bn_1): BatchNorm2d(512, eps=1e-05, momentum=0.1, affine=True, track_running_stats=True)
      (conv_1): Conv2d(512, 768, kernel_size=(1, 1), stride=(1, 1), bias=False)
      (bn_2): BatchNorm2d(768, eps=1e-05, momentum=0.1, affine=True, track_running_stats=True)
      (conv_2): Conv2d(768, 768, kernel_size=(3, 3), stride=(2, 2), padding=(1, 1), groups=32, bias=False)
      (bn_3): BatchNorm2d(768, eps=1e-05, momentum=0.1, affine=True, track_running_stats=True)
      (conv_3): Conv2d(768, 1024, kernel_size=(1, 1), stride=(1, 1), bias=False)
      (relu): ReLU(inplace=True)
      (downsample): Sequential(
        (0): Conv2d(512, 1024, kernel_size=(1, 1), stride=(2, 2), bias=False)
      )
      (CBAM): CBAM(
        (channel_gate): ChannelGate(
          (mlp): Sequential(
            (0): Flatten()
            (1): Linear(in_features=1024, out_features=64, bias=True)
            (2): ReLU(inplace=True)
            (3): Linear(in_features=64, out_features=1024, bias=True)
          )
        )
        (spatial_gate): SpatialGate(
          (compress): ChannelPool()
          (conv): Conv2d(2, 1, kernel_size=(7, 7), stride=(1, 1), padding=(3, 3), bias=False)
        )
      )
    )
    (1): BottleNeck(
      (bn_1): BatchNorm2d(1024, eps=1e-05, momentum=0.1, affine=True, track_running_stats=True)
      (conv_1): Conv2d(1024, 768, kernel_size=(1, 1), stride=(1, 1), bias=False)
      (bn_2): BatchNorm2d(768, eps=1e-05, momentum=0.1, affine=True, track_running_stats=True)
      (conv_2): Conv2d(768, 768, kernel_size=(3, 3), stride=(1, 1), padding=(1, 1), groups=32, bias=False)
      (bn_3): BatchNorm2d(768, eps=1e-05, momentum=0.1, affine=True, track_running_stats=True)
      (conv_3): Conv2d(768, 1024, kernel_size=(1, 1), stride=(1, 1), bias=False)
      (relu): ReLU(inplace=True)
      (CBAM): CBAM(
        (channel_gate): ChannelGate(
          (mlp): Sequential(
            (0): Flatten()
            (1): Linear(in_features=1024, out_features=64, bias=True)
            (2): ReLU(inplace=True)
            (3): Linear(in_features=64, out_features=1024, bias=True)
          )
        )
        (spatial_gate): SpatialGate(
          (compress): ChannelPool()
          (conv): Conv2d(2, 1, kernel_size=(7, 7), stride=(1, 1), padding=(3, 3), bias=False)
        )
      )
    )
    (2): BottleNeck(
      (bn_1): BatchNorm2d(1024, eps=1e-05, momentum=0.1, affine=True, track_running_stats=True)
      (conv_1): Conv2d(1024, 768, kernel_size=(1, 1), stride=(1, 1), bias=False)
      (bn_2): BatchNorm2d(768, eps=1e-05, momentum=0.1, affine=True, track_running_stats=True)
      (conv_2): Conv2d(768, 768, kernel_size=(3, 3), stride=(1, 1), padding=(1, 1), groups=32, bias=False)
      (bn_3): BatchNorm2d(768, eps=1e-05, momentum=0.1, affine=True, track_running_stats=True)
      (conv_3): Conv2d(768, 1024, kernel_size=(1, 1), stride=(1, 1), bias=False)
      (relu): ReLU(inplace=True)
      (CBAM): CBAM(
        (channel_gate): ChannelGate(
          (mlp): Sequential(
            (0): Flatten()
            (1): Linear(in_features=1024, out_features=64, bias=True)
            (2): ReLU(inplace=True)
            (3): Linear(in_features=64, out_features=1024, bias=True)
          )
        )
        (spatial_gate): SpatialGate(
          (compress): ChannelPool()
          (conv): Conv2d(2, 1, kernel_size=(7, 7), stride=(1, 1), padding=(3, 3), bias=False)
        )
      )
    )
  )
  (bn): BatchNorm2d(1024, eps=1e-05, momentum=0.1, affine=True, track_running_stats=True)
  (relu): ReLU(inplace=True)
  (avgpool): AvgPool2d(kernel_size=8, stride=1, padding=0)
  (fc): Linear(in_features=1024, out_features=100, bias=True)
)
[2019-09-01 18:09:22,024] - [train.py line:124] : =====total parameters:8213350
[2019-09-01 18:09:25,841] - [train.py line:151] : ==============trian-test-file-pathLcifar100
[2019-09-01 18:09:25,842] - [train.py line:152] :             =======  Training  =======

[2019-09-01 18:09:25,842] - [train.py line:36] : ====Epoch:[1/250]====
[2019-09-01 18:10:15,325] - [train.py line:61] :    == step: [100/391], train loss: 4.250 | train acc:  6.250% | lr: 0.100000
…
